23-王锦文-广州/第14周/MTCNN_pytorch/train_models/Rnet_weight/checkpoints_iter_5615.tar (torch_old, 485878 bytes, 26 tensors)

momentum_buffer f4 [28, 3, 3, 3]
0	0xbcd643c6	-0.026155364
1	0xbce0ff48	-0.027465478
2	0xbd44ee31	-0.04807872
3	0xbd0c705c	-0.03428684
4	0xbd5d3a96	-0.05401095
5	0xbd57d658	-0.05269465
6	0xbd82cd7e	-0.06386851
7	0xbdaf608c	-0.08563337
8	0xbd5c33b8	-0.05376026
9	0xbd11a0f8	-0.035553902
10	0xbd17eff4	-0.03709407
11	0xbd6e11b4	-0.05812235
12	0xbd516877	-0.051125016
13	0xbd8a3327	-0.06748038
14	0xbd87e989	-0.0663634
15	0xbd906071	-0.07049645
16	0xbdc09e33	-0.09405174
17	0xbd8c426b	-0.06848606
18	0xbcb37ec4	-0.021911032
19	0xbcada53e	-0.021196958
20	0xbd2ea060	-0.042633414
21	0xbceef41c	-0.029169135
22	0xbd278f31	-0.040908042
23	0xbd2c2438	-0.04202673
24	0xbd644b29	-0.05573574
25	0xbd910327	-0.070806794
26	0xbd2c6302	-0.04208661
27	0x3c81c992	0.015843187
28	0x3c9da704	0.019244678
29	0x3ce8a44a	0.028398652
30	0x3cdfae44	0.027304776
31	0x3ce88722	0.028384749
32	0x3cde36c6	0.027125727
33	0x3d1d07ad	0.0383374
34	0x3d3660ae	0.044525795
35	0x3d0f5031	0.034988586
36	0xbb76afc0	-0.0037641376
37	0x3bd2cfe8	0.0064334758
38	0x3bc478b8	0.005995836
39	0x3ca6fc1c	0.020383887
40	0x3cd7a702	0.026324753
41	0x3cb16d36	0.021658521
42	0x3d37469a	0.044745065
43	0x3d5123fb	0.051059704
44	0x3d1394ad	0.03603046
45	0xbc46a458	-0.012124144
46	0xbc49b5f8	-0.012311451
47	0xbc0f9c7c	-0.008765336
48	0x3bd0e828	0.0063753314
49	0x3bf78c68	0.0075545795
50	0x3ae593e0	0.0017515384
51	0x3c932f18	0.017966792
52	0x3cc766fc	0.024341099
53	0x3c032c2c	0.008006137
54	0xbcfd7692	-0.030940328
55	0xbcc34840	-0.023838162
56	0xbd006b66	-0.031352423
57	0xbd0e189c	-0.034691438
58	0xbd3c00b2	-0.0458991
59	0xbcf997ed	-0.030467952
60	0xbd145341	-0.03621221
61	0xbc9eb0e4	-0.019371457
62	0xbcba45de	-0.022738393
63	0xbd39f532	-0.045399852
64	0xbd139744	-0.03603293
65	0xbd105008	-0.035232574
66	0xbd56d104	-0.052445427
67	0xbd5a3250	-0.053270638
68	0xbd130c7b	-0.035900574
69	0xbd4dcd29	-0.050244484
70	0xbcf810fe	-0.03028154
71	0xbcf4a40c	-0.02986338
72	0xbcd207d2	-0.025638495
73	0xbc8af394	-0.01696185
74	0xbca5593a	-0.020184148
75	0xbd13e62e	-0.03610819
76	0xbd22536a	-0.03963033
77	0xbcaa0c84	-0.020757921
78	0xbd3043b2	-0.04303331
79	0xbc8f1116	-0.017464202
80	0xbc28af44	-0.010295693
81	0xbca36000	-0.019943237
82	0xbcb44f6f	-0.022010533
83	0xbc5c71a2	-0.013454827
84	0x3abcd6c8	0.0014407272
85	0xbc34ea06	-0.011042124
86	0xbbcda5aa	-0.006275852
87	0x3c816e9e	0.015799817
88	0x3c0310f2	0.007999646
89	0xbc633fcb	-0.01387019
90	0xbc77519c	-0.015095141
91	0xbbe49156	-0.006975333
92	0x3c024982	0.007952096
93	0x3bd9e1ac	0.0066492166
94	0xbb8e0324	-0.0043338705
95	0x3a4ddc10	0.0007852921
96	0x3cb0c025	0.021575997
97	0x3c9735f9	0.018458353
98	0xba26bc80	-0.0006360486
99	0xbc91e7e8	-0.017810777
100	0xbc8e1260	-0.017342746
101	0xba9e1128	-0.0012059556
102	0xba3efde0	-0.0007285755
103	0xbbf0129a	-0.007326436
104	0x3a3d6bc0	0.0007225834
105	0x3cb8ed23	0.022574013
106	0x3c9fc311	0.019502195
107	0x38262900	3.961567e-05
108	0xbdc87d4e	-0.09789525
109	0xbdfe787c	-0.12425324
110	0xbdfac75e	-0.122450575
111	0xbdd6616c	-0.104678005
112	0xbdd22634	-0.10261193
113	0xbde1ef10	-0.11031926
114	0xbdaec780	-0.08534145
115	0xbdd9d0de	-0.106355414
116	0xbdad6528	-0.0846656
117	0xbdac4f9e	-0.08413623
118	0xbdeec7f0	-0.11659229
119	0xbdfaea1f	-0.12251686
120	0xbdcf11c8	-0.101108134
121	0xbdc2a5dc	-0.095042914
122	0xbdda045c	-0.10645363
123	0xbdad4ce2	-0.0846193
124	0xbdd38a06	-0.1032906
125	0xbdb330ea	-0.08749564
126	0xbd8c1f3e	-0.068418965
127	0xbdcad2ba	-0.09903474
128	0xbdb40c7a	-0.08791442
129	0xbdad1690	-0.08451569
130	0xbd98a058	-0.07452458
131	0xbd8f9fee	-0.07012926
132	0xbd465104	-0.048417106
133	0xbd894f5c	-0.0670459
134	0xbd2a99c8	-0.041650563
135	0xbd18e414	-0.037326887
136	0xbd3d7d18	-0.046261877
137	0xbd25e27c	-0.040499195
138	0xbd78c5a0	-0.060735345
139	0xbd379ca8	-0.044827133
140	0xbd45d824	-0.04830183
141	0xbd54b168	-0.051927
142	0xbdb2d9da	-0.08732958
143	0xbda4c6a8	-0.08045703
144	0xbd181aa8	-0.037134796
145	0xbd1a18f4	-0.037621453
146	0xbccf7df0	-0.025328606
147	0xbd84261e	-0.06452583
148	0xbd153078	-0.036423177
149	0xbd24b478	-0.04021117
150	0xbd5c96a8	-0.053854614
151	0xbda87ffa	-0.082275346
152	0xbd825dac	-0.06365523
153	0x3c2c9710	0.010534063
154	0x3c4ee620	0.012628108
155	0x3c691280	0.014225602
156	0xbd1874c8	-0.037220746
157	0xbc4b4ef0	-0.012408957
158	0xbbd4e680	-0.0064972043
159	0xbc93c818	-0.018039748
160	0xbd6b5b4c	-0.057460114
161	0xbd4421e8	-0.047883898
162	0x37ac3000	2.052635e-05
163	0x3c8b8960	0.017033279
164	0x3d7388e2	0.059456713
165	0x3c6d7168	0.01449237
166	0x3d0199c0	0.031640768
167	0x3d2e45fc	0.04254721
168	0x3d014688	0.031561404
169	0x3d0afe72	0.033934064
170	0x3d1f6f2a	0.038924374
171	0xbc536bd0	-0.0129041225
172	0x3c083000	0.008312225
173	0x3d4c1c34	0.049831584
174	0x3c799848	0.015234061
175	0x3cedc2a4	0.029023476
176	0x3d1b3938	0.037896365
177	0x3d01df08	0.03170684
178	0x3cd1b738	0.02560006
179	0x3cf1a334	0.029496767
180	0xbca14358	-0.019685432
181	0x3ad4fd80	0.0016249865
182	0x3d1d517c	0.038407788
183	0xb9defd00	-0.0004253164
184	0x3c7088b8	0.014681034
185	0x3ca59bd0	0.020215899
186	0x3b58b2e0	0.0033065602
187	0xb9a78a00	-0.0003195554
188	0xbad3b700	-0.0016152561
189	0xbd5d5e3d	-0.05404495
190	0xbd51b88e	-0.051201396
191	0xbd59fe3e	-0.05322098
192	0xbd35f6fd	-0.044425
193	0xbd1fa8be	-0.038979284
194	0xbd113f17	-0.035460558
195	0xbc9862df	-0.018601833
196	0xbcbaff5d	-0.022826845
197	0xbd06a2c5	-0.032870073
198	0xbd0c302b	-0.034225624
199	0xbd2146be	-0.039374106
200	0xbd20286b	-0.039101046
201	0xbcf803d5	-0.030275265
202	0xbce2052c	-0.027590357
203	0xbc850f6a	-0.016242702
204	0xbb7d5678	-0.0038656276
205	0xbbe3f30b	-0.006956463
206	0xbc73bcb0	-0.01487653
207	0xbd4d27e7	-0.050086882
208	0xbd43bedd	-0.047789443
209	0xbd383f96	-0.044982515
210	0xbd2f11e7	-0.042741682
211	0xbceeb59b	-0.02913933
212	0xbcc385a9	-0.023867445
213	0xbc87de5e	-0.016585525
214	0xbc1dcdf4	-0.009631623
215	0xbcb1ec30	-0.021719068
216	0x3db81316	0.08988015
217	0x3d4df024	0.050277844
218	0x3d754118	0.05987653
219	0x3cf29940	0.02961409
220	0x3c7bc250	0.015366152
221	0x3cc1f358	0.023675606
222	0x3ccc36b8	0.024928436
223	0x3c950120	0.018189013
224	0x3cbe9c40	0.023267865
225	0x3dad92cc	0.08475265
226	0x3d3ef984	0.046624675
227	0x3d61d4c8	0.055134565
228	0x3cc983d8	0.024599
229	0x3c173ea0	0.00923124
230	0x3c3a4670	0.011369333
231	0x3cc924d8	0.024553701
232	0x3c23ddf0	0.0100016445
233	0x3c8db388	0.017297521
234	0x3d3139ac	0.04326789
235	0x3bcd50a0	0.0062657148
236	0x3c8b0f68	0.01697512
237	0xbcc65b5c	-0.024213485
238	0xbd25a1f6	-0.04043766
239	0xbcdf4950	-0.027256638
240	0xbcba20d8	-0.02272074
241	0xbd195e12	-0.037443228
242	0xbcd92b00	-0.026509762
243	0xbce6a4f0	-0.02815482
244	0xbd404fba	-0.046951033
245	0xbdb5401a	-0.08850117
246	0xbc7b2c28	-0.015330352
247	0xbd02d3f0	-0.0319404
248	0xbce26974	-0.027638175
249	0xbcfb21b8	-0.030655727
250	0xbcc1962c	-0.023631178
251	0xbd2716f4	-0.040793374
252	0xbcda7114	-0.026665248
253	0xbd24bd2a	-0.040219463
254	0xbdb44856	-0.088028595
255	0xbc3cdfc0	-0.0115279555

momentum_buffer f4 [64]
0	0xba9c63de	-0.0011931618
1	0xb9a48870	-0.0003138217
2	0x3bae4998	0.0053188317
3	0xbc1378fc	-0.009001013
4	0xbb847372	-0.0040420825
5	0xbacf7f78	-0.0015830835
6	0xbb845d7b	-0.004039464
7	0x3b2b3f0a	0.0026130104
8	0xba89b628	-0.0010506557
9	0xbb27ffe8	-0.002563471
10	0xbb59310a	-0.0033140802
11	0xbb599015	-0.0033197452
12	0x3b28478a	0.0025677406
13	0x3b43c345	0.0029871028
14	0xbb83dc8d	-0.0040240944
15	0xb9dffe94	-0.0004272355
16	0xbb827128	-0.0039807744
17	0xbb784620	-0.0037883595
18	0xbb454f34	-0.0030107023
19	0xbb1401de	-0.002258412
20	0xbb1a55f0	-0.0023549758
21	0xbba2e329	-0.0049709273
22	0x3aa143ac	0.0012303493
23	0xbbbaf05c	-0.0057049226
24	0xba7ab982	-0.0009564386
25	0x3b141da5	0.0022600677
26	0x3b7bb232	0.0038405773
27	0xba7a96e0	-0.0009559225
28	0x3b9713ca	0.0046105133
29	0x3b1285ad	0.002235751
30	0x3bd49086	0.006486955
31	0xbb0c964e	-0.0021451893
32	0x3b533a92	0.0032230956
33	0xb9448970	-0.00018743216
34	0x3b00c9ac	0.0019651456
35	0x3b822d59	0.003972691
36	0xb924d620	-0.00015720027
37	0x3c04918a	0.00809134
38	0xbbb250a0	-0.00544174
39	0xbb06cb3e	-0.002056792
40	0x3bcec168	0.006309677
41	0x3b959796	0.0045651896
42	0x3b4d1e22	0.0031298478
43	0xbb6d1f2a	-0.0036181905
44	0xbbe0a746	-0.006855878
45	0xbb998ab3	-0.0046857237
46	0xbbc5c96c	-0.0060359742
47	0xbaa236ae	-0.0012375915
48	0x3a877d22	0.0010336975
49	0xbc0318cf	-0.00800152
50	0xb9b59a80	-0.00034638122
51	0x39cc7360	0.00038995873
52	0xbb1a8e17	-0.0023583227
53	0xbbd2b279	-0.006429967
54	0x3aecc5c0	0.0018064305
55	0x39bc098c	0.00035865267
56	0xbac7ab3a	-0.0015233525
57	0xbb1632a8	-0.0022918377
58	0xbb4ee30a	-0.0031568431
59	0xb9a6f88f	-0.00031847178
60	0xba85a65c	-0.0010196674
61	0xba727d40	-0.0009250231
62	0x3b32f52c	0.0027306778
63	0xbba64cfc	-0.005075095

momentum_buffer f4 [4, 128]
0	0xbba2f282	-0.004972757
1	0x3badc1ba	0.005302635
2	0xbb1772e2	-0.0023109247
3	0x3b9219ff	0.0044586654
4	0xb93cbc8e	-0.00017999319
5	0x3b4081ea	0.002937431
6	0x3b60e5d4	0.0034316676
7	0xb96e2276	-0.00022710286
8	0x3aec65b5	0.0018035682
9	0xb7762c40	-1.4673045e-05
10	0xbc033253	-0.008007604
11	0xbb81cde7	-0.003961313
12	0x3c34af06	0.011028057
13	0x3b0e9a22	0.002175935
14	0x3b28bd8c	0.0025747744
15	0x3b8dab4a	0.0043233978
16	0x3a4a36cf	0.00077138556
17	0xba33a2a2	-0.0006852542
18	0x3c1633aa	0.009167591
19	0xba1da6e6	-0.00060139445
20	0xba4bcd8c	-0.00077744643
21	0x3a35d602	0.00069364917
22	0xba92c83a	-0.0011198588
23	0xbaeec87e	-0.001821771
24	0xbacfebd2	-0.0015863127
25	0x3b4c6d08	0.0031192917
26	0xbbc26d42	-0.0059334347
27	0xbb659ce7	-0.0035036148
28	0x3ba858b0	0.0051375255
29	0x3a89389e	0.0010469144
30	0x3b863ecb	0.004096841
31	0xbacbac66	-0.001553905
32	0xbbb2e070	-0.005458884
33	0xbac0b4ab	-0.0014702281
34	0xbb0863d1	-0.0020811448
35	0xbb74a238	-0.0037328135
36	0x39949c33	0.00028345137
37	0x3aab38ca	0.0013063189
38	0x3ba2776d	0.0049580843
39	0x3af9b057	0.0019049746
40	0xba540a42	-0.0008088687
41	0xbb73f0f3	-0.0037222474
42	0x398981b9	0.00026227327
43	0x3ac58bc3	0.001507156
44	0xbb8a9888	-0.004229609
45	0xbbd27b27	-0.0064233723
46	0x3b7a0b1c	0.0038153594
47	0xbbbcee7a	-0.0057657333
48	0xbbdd0c84	-0.0067458767
49	0x3b32896d	0.0027242557
50	0x3c2a546a	0.010396102
51	0x39a958d0	0.00032300362
52	0x39d96ca6	0.00041470415
53	0x3b07551c	0.0020650094
54	0xb9cb800e	-0.00038814585
55	0xba5aef8c	-0.00083517353
56	0xbb2b8ee4	-0.0026177699
57	0xb8c0713c	-9.176365e-05
58	0x3b0aa920	0.0021157935
59	0xbb5b990b	-0.0033507969
60	0xbb9b9af7	-0.004748698
61	0x3ad8f664	0.0016552922
62	0xbbe809e6	-0.007081258
63	0x3b42d8a1	0.0029731172
64	0x3ad54ffd	0.0016274449
65	0xba95d0a7	-0.0011429981
66	0x3a95ca49	0.0011428084
67	0xbab32110	-0.001366647
68	0x3b771e8a	0.0037707412
69	0x3b02bcad	0.0019948885
70	0xb9c842d2	-0.00038196758
71	0xb9b8c7f6	-0.00035244197
72	0xba922c1a	-0.0011152059
73	0x3ac09d8e	0.0014695392
74	0x3a5ae957	0.00083508104
75	0x3bc77fde	0.006088241
76	0x3b9743b0	0.0046162233
77	0x38aa47b0	8.1195845e-05
78	0x3a598ba4	0.0008298701
79	0xb8c47030	-9.366905e-05
80	0xbb8727fb	-0.004124639
81	0x3be2b77c	0.0069188457
82	0xbabccf6a	-0.0014405076
83	0x3b4e7c06	0.003150703
84	0xbb1f6008	-0.0024318714
85	0x3b0114aa	0.0019696155
86	0x3b3d93aa	0.0028927126
87	0xbaad07ba	-0.0013201155
88	0x3bae5cb5	0.00532111
89	0xbbc0dde5	-0.005885827
90	0x3b3ca979	0.0028787537
91	0x3a9c6fc2	0.0011935162
92	0x3afd9a26	0.0019348308
93	0xb9c47ca5	-0.000374769
94	0xbbda4707	-0.006661299
95	0x3aed0c9f	0.0018085426
96	0x3be44dee	0.0069672978
97	0x370736b0	8.05936e-06
98	0x3a939c4f	0.0011261794
99	0x3b6beaa4	0.003599801
100	0xbb3534a3	-0.0027649782
101	0x3b9ad0ef	0.004724614
102	0xb85622a8	-5.1053852e-05
103	0xb87163a0	-5.755166e-05
104	0xbbd68b72	-0.006547385
105	0xbaf31e30	-0.0018548425
106	0xbbcf4d53	-0.0063263564
107	0x3b821a61	0.0039704298
108	0x3ae28472	0.0017281903
109	0x39d8affb	0.00041329846
110	0xbb815389	-0.0039467257
111	0x3b5cb6f2	0.003367838
112	0x3b68ac49	0.003550308
113	0xba4b936c	-0.0007765803
114	0xba4274c8	-0.00074179145
115	0xbc03368c	-0.00800861
116	0xbba89808	-0.0051450767
117	0x398c701d	0.00026786412
118	0xbb96282c	-0.0045824256
119	0xbb34d3cf	-0.0027592068
120	0xbb574e1c	-0.0032852953
121	0xba83c25f	-0.0010052434
122	0x3b399709	0.0028318784
123	0x3aad6442	0.0013228732
124	0xb9715888	-0.00023016531
125	0x3b7a46d4	0.003818919
126	0x3aab3112	0.0013060889
127	0xbb093ee6	-0.0020942031
128	0x3aba5c6e	0.001421822
129	0x3a822e64	0.0009932038
130	0xbae39f45	-0.0017366192
131	0xbb80bff9	-0.003929135
132	0x3b25822d	0.0025254593
133	0x39b717a1	0.00034922085
134	0x39e75d76	0.00044129387
135	0x3bc41699	0.005984139
136	0xbb07501c	-0.0020647114
137	0xbb77f170	-0.0037833117
138	0xbb32cb8f	-0.0027281975
139	0x3b89feca	0.0042112814
140	0x3b84176a	0.0040311115
141	0x3b53ebcf	0.0032336598
142	0x3b8a0d44	0.004213007
143	0x3a380a44	0.00070205727
144	0x3be63aad	0.0070260377
145	0xbb5c7c6b	-0.0033643495
146	0xba280461	-0.0006409344
147	0xbb5a4e3e	-0.0033310796
148	0xba5c7b85	-0.000841074
149	0xbac55ddf	-0.0015057883
150	0xb96051e8	-0.00021392817
151	0xba3bcdf5	-0.0007164174
152	0xbacbce1a	-0.0015549094
153	0x3b249178	0.002511112
154	0xbbcfce17	-0.0063417065
155	0xba46be30	-0.0007581441
156	0xbaa26057	-0.0012388331
157	0x3aa5fc6c	0.0012663729
158	0x3bb63920	0.005561009
159	0x3b2bfe78	0.0026244204
160	0xbbf90836	-0.007599856
161	0xbb9390e2	-0.0045033554
162	0xbb553c0b	-0.003253701
163	0x3a1468ea	0.00056613854
164	0xba21aebb	-0.00061676995
165	0xbb14e154	-0.0022717314
166	0xbb1ce4ff	-0.0023940203
167	0x3a9ddb6a	0.001204354
168	0x3afd439e	0.001932252
169	0x3b3b5876	0.0028586662
170	0xb94c3069	-0.0001947299
171	0xbb866f48	-0.004102621
172	0x3b8dc609	0.004326586
173	0x3b70b8c5	0.0036731225
174	0x3b1671fa	0.002295612
175	0xbb001c8c	-0.0019548265
176	0xbbe27712	-0.006911167
177	0x3b816eeb	0.00394999
178	0x39576078	0.00020539935
179	0x3b26d2ea	0.0025455304
180	0xbbf07384	-0.0073379893
181	0x3b1d957a	0.0024045394
182	0xba2e37cd	-0.0006645888
183	0x3b52bd2d	0.0032156215
184	0xbb2b1392	-0.0026104194
185	0x3bcb48af	0.006203733
186	0x3b13ee3b	0.0022572416
187	0xbb0f0f97	-0.002182936
188	0xbb489c1a	-0.0030610622
189	0xbb16de5c	-0.002302072
190	0xbbc82500	-0.0061079264
191	0x3bcdad1f	0.006276741
192	0xbb4ee0d2	-0.0031567109
193	0xbb2af939	-0.002608849
194	0x39f3bea1	0.000464906
195	0x3b429d78	0.002969591
196	0x3bbefc00	0.0058283806
197	0xba031917	-0.0005000992
198	0xba84d026	-0.0010132834
199	0x3a4247d2	0.0007411215
200	0x3b95f8d5	0.004576782
201	0x3bb34555	0.0054709115
202	0xbadfbde7	-0.0017070145
203	0x3b9cecf2	0.0047889883
204	0x3a124008	0.00055789994
205	0x3ba73d72	0.0051037604
206	0x3a9afc08	0.0011824379
207	0xb904bbd0	-0.00012658467
208	0xbbef94f2	-0.007311457
209	0x3b9c1d74	0.0047642533
210	0x39f92892	0.00047523208
211	0x3b997752	0.0046834135
212	0x3aaaf5eb	0.001304326
213	0x3b71ae1c	0.003687746
214	0x3a9a6050	0.0011777971
215	0xbaec081a	-0.0018007786
216	0xbacbae7c	-0.0015539671
217	0x3aefb76c	0.0018288917
218	0xb984c542	-0.0002532397
219	0xbbd71a7a	-0.0065644355
220	0x3b73694d	0.0037141622
221	0x3c11fa3d	0.008909759
222	0xbbb0b961	-0.0053931926
223	0xbaff15ee	-0.0019461492
224	0xba220e7f	-0.00061819697
225	0x3aff0d1c	0.0019458863
226	0xbaa4fc07	-0.0012587317
227	0xbb325abf	-0.0027214733
228	0x3a86b25e	0.0010276546
229	0xba9108e4	-0.0011065272
230	0x3ab5507c	0.001383319
231	0xb98250ec	-0.00024855824
232	0xbba82217	-0.005131017
233	0x3bc233dc	0.0059265923
234	0xbbca35ae	-0.00617095
235	0x3ac5949c	0.0015074196
236	0x3ac6b974	0.001516147
237	0xbabccc68	-0.001440418
238	0x3bba09d9	0.0056774435
239	0x39ab033e	0.00032618077
240	0xba3a2456	-0.00071007514
241	0xbba71df8	-0.005100008
242	0xbae4c2db	-0.0017453091
243	0x3a1a66bc	0.00058899424
244	0xbb96263a	-0.0045821937
245	0xba4415bc	-0.00074800453
246	0x3b2a39f9	0.0025974496
247	0xb9985564	-0.0002905532
248	0xbb91efc2	-0.00445363
249	0xbb18fb99	-0.0023343323
250	0xbafddabd	-0.0019367557
251	0x3b559e83	0.00325957
252	0x3b7d5c78	0.0038659852
253	0xbb1690f6	-0.0022974587
254	0xbb78813e	-0.0037918831
255	0x3ac4b62e	0.0015007907

momentum_buffer f4 [10, 128]
0	0xb9225df9	-0.00015484531
1	0x3ab950e8	0.0014138492
2	0xbb293903	-0.0025821335
3	0x3a6b76c9	0.0008982239
4	0x3963b50c	0.00021715852
5	0xba379379	-0.0007002871
6	0x3b844929	0.0040370417
7	0xbb7348e3	-0.0037122301
8	0x3b543ef8	0.0032386165
9	0x3afae2eb	0.0019141113
10	0x3a825ae0	0.0009945296
11	0x3a5ca6a1	0.00084171636
12	0xbb29ed86	-0.0025928929
13	0xba995835	-0.0011699261
14	0x39b1ffe0	0.00033950713
15	0x3aab4be3	0.0013068881
16	0xba7c3c07	-0.0009621982
17	0x3a18fbb4	0.00058358465
18	0xba382f23	-0.0007026067
19	0xba5f1367	-0.0008509666
20	0x3936a984	0.00017420022
21	0xbaf0f4ae	-0.0018383467
22	0x3adc6842	0.0016815739
23	0x3b2486ed	0.0025104836
24	0x3b87afa2	0.00414081
25	0x3a0a6529	0.0005279356
26	0x3aa418c3	0.0012519587
27	0x3b16b844	0.0022998014
28	0xbad0581c	-0.0015895399
29	0xbaa0abbc	-0.0012258212
30	0xb9f16a5a	-0.0004604634
31	0x3acf8638	0.0015832847
32	0x3b19709f	0.0023413075
33	0x3a10a5b5	0.00055178563
34	0x3b17de06	0.0023173108
35	0x3b1753c8	0.002309071
36	0x3b16506a	0.0022936114
37	0x3b1083ed	0.002205129
38	0x39fe95da	0.00048558303
39	0x3b8ef0fb	0.004362223
40	0xbb17b206	-0.0023146882
41	0xbadb2148	-0.0016718293
42	0xbab4e678	-0.0013801595
43	0xba7232d5	-0.0009239142
44	0xb7b668c8	-2.1744883e-05
45	0x3a36d26a	0.0006974103
46	0xbb86be47	-0.0041120383
47	0xba48867c	-0.0007649434
48	0x3aef79af	0.0018270517
49	0x3b20f081	0.0024557414
50	0xb9a3c370	-0.00031235395
51	0xbb231cd9	-0.002488902
52	0x3b26d8b8	0.0025458764
53	0xbb11c804	-0.0022244463
54	0xba730d7c	-0.00092717237
55	0xbb7ffd8c	-0.0039061038
56	0xb82148ee	-3.8453312e-05
57	0xbb88af65	-0.0041712993
58	0x3a469a92	0.00075761334
59	0x3b427cd1	0.0029676447
60	0x39c291fd	0.00037111333
61	0x3a2c12fd	0.0006564109
62	0xb9875bd0	-0.00025817612
63	0xbb2ecf8a	-0.0026673996
64	0xbb5aeb57	-0.0033404434
65	0x3acda4d4	0.0015689381
66	0x3a91a9d6	0.0011113237
67	0x3adea6fb	0.001698702
68	0xbbc2b3eb	-0.005941858
69	0x3980a78c	0.00024538895
70	0x3a74710f	0.00093247084
71	0xbafc0af5	-0.001922934
72	0x3a9cfd6e	0.0011977383
73	0xba2b112b	-0.00065256906
74	0x3b1629e6	0.0022913157
75	0xba865ae4	-0.0010250476
76	0x3b720e37	0.0036934742
77	0x3af29599	0.0018507718
78	0x399e66c2	0.0003021267
79	0xbb5c224f	-0.0033589785
80	0x39a4d040	0.00031435676
81	0xbad3539d	-0.0016122941
82	0xb973eae4	-0.0002326179
83	0x379f5de0	1.8997991e-05
84	0x3b0a9298	0.0021144506
85	0xbb7823ce	-0.0037863138
86	0x3b3462cb	0.0027524706
87	0x3a8d841a	0.0010796816
88	0x38ce9a0c	9.851539e-05
89	0xbac519e0	-0.0015037619
90	0x3adf9c89	0.0017060201
91	0x3ae37d78	0.0017356118
92	0x3a889c19	0.0010422497
93	0xbb6340c1	-0.0034676048
94	0x3bb93dec	0.0056531336
95	0xba461fec	-0.00075578573
96	0xb85ab344	-5.2142204e-05
97	0x3b6ed96d	0.0036445514
98	0xba8f331c	-0.0010925266
99	0xb9927528	-0.00027934578
100	0x3a9c465f	0.0011922828
101	0x3b3e4b14	0.002903645
102	0x39619daa	0.00021516407
103	0xbaa5ebcb	-0.0012658773
104	0xb9348d9c	-0.00017218891
105	0xbb19aaee	-0.002344783
106	0x3a75d8f0	0.00093783345
107	0x3a1543c0	0.00056939945
108	0xb7098280	-8.196221e-06
109	0x37087460	8.133327e-06
110	0xbb4351e4	-0.002980345
111	0x3a8473f1	0.0010105354
112	0xba9b1866	-0.0011832833
113	0x3aba52c0	0.0014215335
114	0xbb55bbe6	-0.0032613217
115	0x3b8cf7e9	0.004302014
116	0xbafd6e15	-0.0019335175
117	0x3b0571dc	0.0020362055
118	0x3bad74b1	0.0052934517
119	0xb99b5a8f	-0.00029631375
120	0xbb4f7ac7	-0.0031658874
121	0x3abdee50	0.0014490578
122	0x3ad574f4	0.0016285465
123	0x3a3199d0	0.0006774934
124	0xba8ecc70	-0.0010894667
125	0xb9346320	-0.00017203065
126	0x3b88a414	0.0041699503
127	0xba144412	-0.0005655895
128	0xbab288a9	-0.001362105
129	0x3b466e56	0.0030278168
130	0xbad980d4	-0.001659418
131	0xbb2aa096	-0.0026035658
132	0xbafbb3c3	-0.0019203353
133	0xbb06dff0	-0.0020580254
134	0xba5e668a	-0.00084839074
135	0x3a50ff66	0.00079726276
136	0xb8d89c74	-0.00010328824
137	0x3a1bb582	0.00059398275
138	0x3967ffb8	0.0002212514
139	0x3a632751	0.00086652214
140	0x3aed2012	0.0018091223
141	0x3ab4062c	0.001373475
142	0xbab12120	-0.00135139
143	0xb921fa6c	-0.00015447446
144	0x3ac0a780	0.0014698356
145	0xbb5ebd09	-0.0033987185
146	0x39b894db	0.0003520612
147	0x3b2dd123	0.002652236
148	0xba33f217	-0.00068643823
149	0x3ab11d0d	0.0013512686
150	0xb93139cb	-0.00016901565
151	0xb8ccd01a	-9.76624e-05
152	0x3a966b80	0.0011476129
153	0x3999b194	0.0002931474
154	0xbada9fde	-0.0016679724
155	0x3ae9f05b	0.0017848121
156	0x3ae49e9b	0.0017442288
157	0xb9c470fe	-0.0003746822
158	0xb8ed2127	-0.00011307216
159	0xbb0ab152	-0.002116282
160	0x3b4ecf7b	0.0031556773
161	0x39f206fe	0.00046163046
162	0xba106dd2	-0.00055095286
163	0x3b18c30b	0.0023309614
164	0xbb569399	-0.0032741784
165	0x3ad43005	0.0016188627
166	0x39adf0ba	0.00033176487
167	0x3a4a73b6	0.0007722931
168	0x39b714b0	0.00034919893
169	0xbb29e99e	-0.00259266
170	0x3ac79dec	0.001522956
171	0x39a0b3a2	0.00030651415
172	0x3a9be318	0.0011893241
173	0xbaf90b86	-0.0019000627
174	0xba183e3e	-0.00058076147
175	0xba8d4a63	-0.0010779615
176	0xba3b6a33	-0.0007149309
177	0xb9b608e3	-0.00034720366
178	0xba3cebb9	-0.0007206756
179	0xbaca8683	-0.0015451465
180	0x3a856fb2	0.0010180383
181	0x3a9ce5fd	0.0011970397
182	0xbaae4dcb	-0.0013298331
183	0xba940947	-0.0011294269
184	0x3b0205fb	0.001983999
185	0xbb66c24e	-0.003521103
186	0x3ac45fc8	0.0014982158
187	0xba9fafd8	-0.0012183143
188	0xbb516ad0	-0.0031954534
189	0x3b7035c2	0.0036653136
190	0xbac05e2f	-0.0014676506
191	0x3981d96c	0.0002476679
192	0xb981090c	-0.00024611538
193	0xba5796c3	-0.00082240644
194	0x3a0ef7fb	0.0005453822
195	0xb9c8188e	-0.00038165267
196	0xb9ba9c84	-0.00035593298
197	0x3b664e4a	0.0035141879
198	0x3949c024	0.00019240432
199	0xbac5b05c	-0.0015082466
200	0x3a27dd85	0.00064035534
201	0xbaf26f2e	-0.0018496269
202	0x3891af56	6.946798e-05
203	0x3b1872f0	0.0023261867
204	0xb98fb714	-0.0002741149
205	0xbb56f951	-0.0032802413
206	0xbaaab72a	-0.0013024558
207	0x3a4d974c	0.00078426744
208	0xba17bc16	-0.000578822
209	0x3b48351c	0.0030549234
210	0xba5273e2	-0.0008028132
211	0x3a10beaf	0.0005521578
212	0x38d2af98	0.00010046287
213	0xba5a34d6	-0.0008323913
214	0x3a841de8	0.0010079714
215	0x3b2824d0	0.0025656708
216	0xba73259e	-0.000927532
217	0xbaa0e709	-0.0012275885
218	0x3a8fb2ea	0.0010963355
219	0x39152b1e	0.0001422581
220	0x3b0c39a6	0.0021396666
221	0xbb67fbeb	-0.0035397958
222	0x3aadc38a	0.0013257128
223	0xba234e9e	-0.00062296714
224	0xba0eee83	-0.0005452411
225	0xb947185d	-0.00018987195
226	0x3a454e23	0.0007526597
227	0xbaa32f81	-0.001245007
228	0xbae792ef	-0.0017667691
229	0x3a91041b	0.0011063846
230	0xba67c91f	-0.000884192
231	0xba3a8b5e	-0.0007116104
232	0xbae9cb28	-0.0017837035
233	0xb9fe8b82	-0.00048550597
234	0x3aa1f0d0	0.0012355093
235	0xb913bb6c	-0.00014088833
236	0x3b1a41b4	0.0023537697
237	0x3a90958d	0.0011030898
238	0x370f3f00	8.5381325e-06
239	0x3ae85830	0.0017726477
240	0x39b4b39a	0.0003446609
241	0x3963a920	0.00021711411
242	0x3a6b3bb6	0.0008973436
243	0xb9cd2482	-0.00039127847
244	0xbb43e01a	-0.0029888214
245	0xb98d65fb	-0.00026969597
246	0x3b143b04	0.0022618184
247	0xbb5900e1	-0.0033112096
248	0xba758358	-0.000936558
249	0xba5b90f3	-0.0008375786
250	0x3a74face	0.0009345234
251	0xba76c47b	-0.0009413433
252	0x390bef04	0.00013345113
253	0x36af0940	5.2164833e-06
254	0x3aefa1da	0.0018282488
255	0x3b106f60	0.002203904

momentum_buffer f4 [128, 256]
0	0x3aafd9c2	0.0013416337
1	0x3a3a0e0c	0.000709743
2	0x3a4f4b70	0.00079076644
3	0x3a0fd5d9	0.0005486883
4	0xba3cd844	-0.0007203857
5	0xb9385efe	-0.00017582995
6	0x39ec5974	0.00045080076
7	0x399b8f02	0.00029670453
8	0xbb0fc870	-0.0021939538
9	0xbb1fce4d	-0.002438444
10	0xba57ac6e	-0.0008227293
11	0xbaa7eb5c	-0.0012811231
12	0x3b5ae23a	0.0033399002
13	0x3b8d9a06	0.0043213395
14	0x3b24e5c8	0.0025161374
15	0x3b4931a3	0.0030699752
16	0xb9a5a178	-0.00031591556
17	0x3a024230	0.0004968969
18	0x3a686bde	0.0008866171
19	0x3b0610ca	0.0020456784
20	0xba09f13e	-0.0005262083
21	0x3a3fd9a6	0.0007318504
22	0xba349e8a	-0.0006890079
23	0xb884ea98	-6.337947e-05
24	0x3a1ad05d	0.00059056823
25	0x3ab39f48	0.0013704086
26	0x38bf37c8	9.11798e-05
27	0xba024f64	-0.00049709366
28	0xbb38fdfe	-0.0028227563
29	0xba85a448	-0.0010196054
30	0x39a515c8	0.0003148748
31	0x3ad9ae03	0.0016607646
32	0x3a4ceb61	0.00078170566
33	0x39ec8c16	0.000451178
34	0xb94c2b5c	-0.00019471109
35	0xb9b447e2	-0.00034385832
36	0x3b319910	0.002709929
37	0x3a96fe8c	0.0011519953
38	0x3b16ffe5	0.0023040709
39	0x3a91f848	0.0011136616
40	0xb9256fc6	-0.00015777265
41	0x39901dd6	0.0002748805
42	0xb9bb7b5d	-0.00035759332
43	0x3939a4a0	0.00017704302
44	0x3a96a9f6	0.0011494744
45	0xba82b0e4	-0.000997093
46	0x3a15bf69	0.0005712421
47	0x3aef329c	0.0018249336
48	0x399ef308	0.0003031718
49	0xba208f78	-0.0006124894
50	0xb9e078aa	-0.0004281451
51	0xbac9f1ae	-0.0015407109
52	0xbaf4c5a0	-0.001867462
53	0xba52a196	-0.00080349424
54	0xb96a4b0c	-0.00022343936
55	0xb996ca50	-0.00028760964
56	0x3807b1c0	3.235205e-05
57	0xbb3f398c	-0.0029178588
58	0x3a82859a	0.0009958029
59	0xba38b2cf	-0.00070456875
60	0xb91e3a1c	-0.00015089702
61	0x3a1fbbd5	0.0006093358
62	0xba93e4f3	-0.0011283442
63	0xbaf0d620	-0.0018374361
64	0xba84f1fc	-0.0010142918
65	0xba0b0120	-0.0005302597
66	0x39dedffe	0.00042510027
67	0x3a29b17d	0.0006473286
68	0xbb19e496	-0.0023482195
69	0xbb5ff36f	-0.0034172197
70	0xba9831c0	-0.0011611506
71	0xbb070904	-0.002060474
72	0x3ae621b9	0.0017557658
73	0x3b165794	0.0022940384
74	0x396e6ab1	0.00022737194
75	0x3a27dcd1	0.00064034486
76	0x39469de0	0.00018941564
77	0x3ac57f28	0.0015067803
78	0xba95d32a	-0.001143073
79	0xbacb8cb2	-0.0015529601
80	0xb852fd33	-5.030371e-05
81	0x39922851	0.00027877328
82	0xb863195f	-5.4144646e-05
83	0x38503976	4.964458e-05
84	0x3abd81a1	0.0014458188
85	0x39b29e28	0.0003406864
86	0x3a1d207d	0.0005993916
87	0x39cf261e	0.00039510516
88	0xbb07dbdb	-0.002073041
89	0xbb0b496e	-0.0021253484
90	0xb9f1320c	-0.0004600439
91	0x38ff0b40	0.00012161443
92	0x3ac9532c	0.001535987
93	0x3a501355	0.0007937451
94	0x3ada1d43	0.0016640801
95	0x3a815d72	0.0009869768
96	0xb9301d20	-0.00016795518
97	0x3aca8937	0.001545227
98	0xb9d76094	-0.00041079952
99	0x3aa61fac	0.0012674234
100	0xb9695628	-0.00022252707
101	0x39f8f4ce	0.0004748464
102	0xbaf4a55b	-0.0018665002
103	0xba82baf2	-0.0009973927
104	0xbab6abfe	-0.0013936756
105	0xbac8a5d8	-0.0015308214
106	0xba09c358	-0.0005255244
107	0x3a5d4f07	0.0008442257
108	0x3a61a228	0.0008607232
109	0x3b52c413	0.0032160326
110	0x3a755b54	0.0009359617
111	0x3a82fed4	0.0009994158
112	0x389368e8	7.0290465e-05
113	0xbabcb7fb	-0.0014398092
114	0xba7f7f52	-0.000974645
115	0xbb09abe8	-0.0021007005
116	0xba1d134c	-0.000599195
117	0xbaf6ca1a	-0.0018828542
118	0xba259f71	-0.0006318009
119	0xbaa1a790	-0.0012333263
120	0xba81f2f7	-0.0009914328
121	0xbb053b7d	-0.0020329647
122	0xb9820819	-0.00024801565
123	0xba88d593	-0.0010439627
124	0xb8ce3e30	-9.834429e-05
125	0xba2a1a4a	-0.0006488903
126	0x39ace8ba	0.0003297979
127	0x3a8118a1	0.0009849259
128	0xbaa20b81	-0.0012363048
129	0xba987566	-0.0011631667
130	0xbab2ef92	-0.001365172
131	0xba942a5f	-0.0011304131
132	0x3a805bb5	0.0009792956
133	0x3a972daa	0.0011533995
134	0xb8b5f960	-8.677202e-05
135	0x391b9c9c	0.00014840293
136	0xbadb9dde	-0.0016755422
137	0xba8e4784	-0.0010855054
138	0xba09ac1c	-0.00052517815
139	0xb9244ae0	-0.00015668152
140	0x3a2c2512	0.0006566803
141	0x398f1ef8	0.0002729816
142	0xb9f96e6a	-0.00047575246
143	0xba80d4de	-0.0009829064
144	0x3a4708b2	0.0007592543
145	0x3ab453e2	0.0013757909
146	0x3b160d48	0.00228961
147	0x3b08bd08	0.0020864625
148	0xbaa775a7	-0.0012776152
149	0xbb10ffdb	-0.0022125158
150	0xbacdfae7	-0.0015715034
151	0xbb290950	-0.0025792904
152	0xb7730dc0	-1.448713e-05
153	0x3ab1eb09	0.0013574074
154	0x3a988d97	0.0011638877
155	0x3ad41712	0.0016181192
156	0x378ef640	1.7042388e-05
157	0x3a29ab8c	0.0006472401
158	0xb9f5b9cc	-0.0004686847
159	0xba97ee0b	-0.0011591328
160	0x3a23a250	0.0006242143
161	0xb97f57a7	-0.00024351348
162	0xba99ceb9	-0.0011734582
163	0xba4d331c	-0.0007827745
164	0xba841d35	-0.0010079505
165	0xbb3ec7b0	-0.0029110722
166	0xbac96e26	-0.001536791
167	0xba86d54d	-0.0010286957
168	0x38c0b370	9.188696e-05
169	0x3a9d1f98	0.0011987565
170	0x39fe63f6	0.00048521132
171	0x3905a2c8	0.00012744509
172	0x3a76765a	0.0009401791
173	0x3a8d42a6	0.0010777309
174	0xba9bac25	-0.0011876865
175	0xba102f56	-0.00055002177
176	0x39d63860	0.00040859263
177	0x3aab1338	0.0013051992
178	0x39e09c76	0.00042841182
179	0x3ae7301a	0.0017638237
180	0x3965461e	0.00021865263
181	0x3afc3d24	0.0019244296
182	0xba74887e	-0.00093282
183	0xba5a7b86	-0.00083344465
184	0x38ca763a	9.654132e-05
185	0x3aa07779	0.0012242637
186	0x3ad49f08	0.0016221711
187	0x3b00eeb7	0.0019673535
188	0x3a2aeb78	0.0006520073
189	0x3a1ef79a	0.0006064117
190	0xbaa643e4	-0.0012685028
191	0xba7b9057	-0.00095963984
192	0xb9803f0b	-0.00024461033
193	0x393d61d0	0.00018060883
194	0x38488296	4.7805333e-05
195	0x39a80332	0.00032045838
196	0x3b5710b8	0.0032816362
197	0x3afadb88	0.0019138912
198	0x3b3bfe6d	0.0028685585
199	0x3b4ddd83	0.003141255
200	0x3a3dcaec	0.00072400155
201	0xb9aa6607	-0.00032500943
202	0xba9ceae2	-0.0011971856
203	0xbaf8597b	-0.0018947566
204	0x3a175173	0.000577233
205	0x3aff3941	0.0019472019
206	0x39e46f0e	0.0004357029
207	0x3ad78742	0.0016443508
208	0x3aa6938b	0.0012708766
209	0x38c2cdc8	9.2889706e-05
210	0xb7ae4180	-2.0772917e-05
211	0x3a12e79c	0.00056039705
212	0x3b20a0c9	0.0024509898
213	0x399f106b	0.00030339076
214	0x3a4b7ce5	0.0007762446
215	0x3aa06675	0.0012237566
216	0x3a5136e2	0.00079808955
217	0xb9d7915c	-0.00041116297
218	0x3a0e0600	0.0005417764
219	0x37b2c210	2.1309621e-05
220	0x3a10859a	0.0005513072
221	0x385a9be0	5.212042e-05
222	0x3adf888c	0.0017054244
223	0x3ab4ca1e	0.0013793146
224	0xb97c1c6b	-0.0002404318
225	0xb9922bfd	-0.00027880064
226	0x39533a32	0.00020144208
227	0x39898900	0.0002623275
228	0x3ac875b7	0.0015293871
229	0x39862522	0.00025586138
230	0x3ad41745	0.0016181251
231	0x3abea80d	0.0014545933
232	0x3a2a024a	0.00064853264
233	0xb9264670	-0.00015857234
234	0x3aa9ff63	0.0012969788
235	0x3a6e21b1	0.0009084
236	0x38a1f988	7.723557e-05
237	0x393c96c0	0.00017985236
238	0xba528ce2	-0.00080318574
239	0xb92390d0	-0.00015598838
240	0x3aac4281	0.0013142378
241	0x3b4fc0ba	0.0031700567
242	0xba6b6d3a	-0.00089808146
243	0xba4c5778	-0.0007795016
244	0xba351af1	-0.00069086166
245	0xba1431c8	-0.000565317
246	0xba8d1c79	-0.0010765932
247	0xb9acbcd3	-0.00032947081
248	0xb796aae0	-1.7960963e-05
249	0x3942de28	0.00018584041
250	0x3a4695b2	0.0007575407
251	0x39d9e5c3	0.0004156065
252	0x39ee2ed6	0.00045429793
253	0x3a9675c2	0.0011479186
254	0x3ac5b44d	0.0015083641
255	0x3af3e52e	0.001860773

momentum_buffer f4 [128]
0	0x3ac1d610	0.0014788527
1	0xba56cc23	-0.0008193871
2	0xbb69f206	-0.0035697236
3	0xb9089200	-0.0001302436
4	0x3b25b407	0.0025284307
5	0x3b6a3cd2	0.0035741818
6	0x39cbc5a8	0.00038866443
7	0xb9bd8060	-0.00036144536
8	0xb6d36780	-6.300339e-06
9	0x3b607ad3	0.0034252896
10	0x3a741f90	0.00093125645
11	0xba85c462	-0.0010205621
12	0x392e4be8	0.0001662221
13	0xb9ef0604	-0.00045590114
14	0x3a93b30e	0.0011268572
15	0x399f72e5	0.00030412446
16	0xb98ac550	-0.0002646842
17	0xba2156dc	-0.00061546057
18	0x3a19dbf4	0.00058692624
19	0x3b245158	0.0025072899
20	0xba39e9a4	-0.0007092005
21	0xbaab1dbd	-0.0013055127
22	0xba7b8fdc	-0.0009596327
23	0x3b866e20	0.0041024834
24	0xba8b11c6	-0.0010610155
25	0x3aa9fe79	0.0012969516
26	0xb8c93be0	-9.5955795e-05
27	0x3a61733f	0.0008600242
28	0x3acf89d6	0.0015833925
29	0xb9bc95b8	-0.00035969703
30	0x3ad1151d	0.0015951727
31	0x3b3fadb8	0.0029247832
32	0xbab91564	-0.0014120755
33	0x3a645360	0.00087099336
34	0xb9b49b80	-0.00034448132
35	0xbb064b3b	-0.0020491618
36	0x3a929b28	0.0011185156
37	0x397a7070	0.00023883744
38	0x3af9e74f	0.0019066128
39	0x39dd9e68	0.00042270427
40	0xba872c62	-0.001031291
41	0xb94f8cf8	-0.00019793573
42	0xbacef507	-0.0015789577
43	0x3b2f8a6c	0.0026785387
44	0x387c6d30	6.018317e-05
45	0x39b58704	0.00034623605
46	0xb8c43120	-9.3551585e-05
47	0xb99cb115	-0.00029886575
48	0x3b21bbb3	0.0024678528
49	0xba286f6c	-0.00064252946
50	0x390a77d4	0.00013205345
51	0xbacef35d	-0.0015789081
52	0x3b70b8e1	0.003673129
53	0xbae0ba64	-0.0017145392
54	0xbaaaf0ed	-0.0013041772
55	0xba937cf8	-0.0011252454
56	0x3b225834	0.0024771811
57	0xba313d14	-0.00067611155
58	0xbb5d4857	-0.0033765042
59	0x3a1b5d94	0.0005926725
60	0x3aeeab8e	0.0018209086
61	0x3b98dffe	0.004665374
62	0xba9c20fc	-0.0011911686
63	0xbb00938a	-0.001961919
64	0xbac40063	-0.0014953729
65	0x394431ac	0.00018710521
66	0xb81ff420	-3.8135913e-05
67	0x3aa07ee6	0.001224485
68	0xbb3454fc	-0.0027516475
69	0xbaaa0400	-0.0012971163
70	0xb8b9ecd8	-8.865603e-05
71	0x3a983952	0.0011613762
72	0xba93a31e	-0.0011263823
73	0xb898bbc0	-7.282896e-05
74	0x3b53c009	0.0032310507
75	0xbb49d6a7	-0.0030798109
76	0xbac24ef0	-0.0014824551
77	0xba85ac14	-0.0010198378
78	0xb9dd53d0	-0.0004221485
79	0xba80ea89	-0.0009835522
80	0x3b0b1f7c	0.0021228483
81	0xb94c578c	-0.0001948757
82	0xbac4ac44	-0.0015004952
83	0x3b2f9fe0	0.0026798174
84	0xba80e071	-0.0009832514
85	0x39ab07b4	0.000326214
86	0xb8d08a80	-9.9440105e-05
87	0x3bbed2b2	0.0058234567
88	0xbb51e650	-0.0032028146
89	0x3a370e17	0.00069829955
90	0xba9c1812	-0.0011909029
91	0xb9780518	-0.0002365302
92	0x3a56a7c0	0.0008188449
93	0x3a0f0bdc	0.0005456784
94	0xb8cb5320	-9.6952775e-05
95	0xba7fe8c5	-0.00097621634
96	0xb964a3b5	-0.0002180476
97	0xbb1027ca	-0.0021996372
98	0xbae7ed6c	-0.0017694659
99	0x3a368052	0.000696187
100	0x3a08841a	0.0005207673
101	0x3b1026b8	0.0021995734
102	0xbb729784	-0.003701658
103	0x38b2a470	8.51833e-05
104	0x3a87fa44	0.0010374268
105	0xbb08eb75	-0.0020892296
106	0x3ab797da	0.0014007047
107	0x3b0e5839	0.0021720065
108	0x3b0f4686	0.0021862104
109	0x39f6447f	0.0004697181
110	0x3a628ade	0.00086419086
111	0xb796ee80	-1.7992454e-05
112	0x3aa5a12a	0.0012636532
113	0xbb3565b0	-0.0027679019
114	0xbb06cb90	-0.002056811
115	0x3ab82818	0.0014050035
116	0x3aaac742	0.0013029354
117	0x39f93c54	0.0004753793
118	0x3ad7d038	0.0016465252
119	0x3a1f854f	0.0006085233
120	0xba83c26a	-0.0010052447
121	0x3a137810	0.00056254957
122	0x3a9115e4	0.0011069146
123	0xba999e78	-0.0011720201
124	0xbb0b9e90	-0.0021304227
125	0x3ace2320	0.0015727021
126	0xb8946630	-7.076224e-05
127	0x3ad1171f	0.0015952325

momentum_buffer f4 [48]
0	0xbb359924	-0.0027709687
1	0x3c6a88ac	0.014314812
2	0x3a31b528	0.00067790085
3	0x3ba71500	0.005098939
4	0x3b5968f5	0.0033174132
5	0x3aa96a10	0.0012925286
6	0x3b018b2c	0.001976679
7	0x3b57dd40	0.0032938272
8	0xbc87e68b	-0.016589424
9	0xbba20ecb	-0.004945611
10	0x3b331ae4	0.002732926
11	0xbb8f8c76	-0.004380758
12	0x3bd41898	0.0064726584
13	0x3b23f617	0.0025018507
14	0x3b979eb0	0.0046270713
15	0xbb16fe00	-0.002303958
16	0xb92f4520	-0.00016715052
17	0xbc72472c	-0.0147874765
18	0xbc85e832	-0.01634607
19	0xbbb3d9fd	-0.0054886327
20	0xbaad8c76	-0.0013240713
21	0xbc222256	-0.009895882
22	0xbb252a38	-0.0025202166
23	0x3c2eb71a	0.010663772
24	0xbbdc6300	-0.006725669
25	0xbb04a1d8	-0.0020238068
26	0x3c3d43c6	0.011551803
27	0x3b3fc4b8	0.002926154
28	0xbb8f8466	-0.004379797
29	0x3c0c6842	0.008569779
30	0x3b82efd5	0.0039958754
31	0x3b0bd6ca	0.002133774
32	0xba35d3c8	-0.000693616
33	0x3a606714	0.0008560282
34	0x3be60fd8	0.0070209317
35	0xbbb20038	-0.005432155
36	0xbb26c3f8	-0.0025446396
37	0x3c4c91fa	0.012485975
38	0xbbbb4ec8	-0.0057161786
39	0xbbe02d14	-0.006841311
40	0x3ac04d5d	0.0014671494
41	0xbc6b4ff8	-0.014362328
42	0xbb998784	-0.004685344
43	0xbc7f69a0	-0.015589148
44	0x3c2add7c	0.010428783
45	0x3b449bc8	0.003000008
46	0xbc258ccf	-0.010104372
47	0xbc638c22	-0.013888391

momentum_buffer f4 [64, 48, 2, 2]
0	0x3aa773e8	0.0012775632
1	0x3a10baa0	0.00055209734
2	0x3ad63660	0.0016343109
3	0x3ac5b614	0.0015084171
4	0x3b898f11	0.004197963
5	0x3b7c6b1a	0.0038515986
6	0x3acf1550	0.0015799198
7	0x39582ae0	0.00020615337
8	0x3b45df28	0.0030192826
9	0x3bb26db0	0.0054452047
10	0x3b6c5902	0.0036063795
11	0x3b3adda0	0.0028513446
12	0xbb04fc9a	-0.0020292164
13	0x3b88d64e	0.0041759377
14	0xbb15833c	-0.0022813817
15	0x3a2cbb38	0.0006589177
16	0xba747e8d	-0.0009326719
17	0x3a7eb0d8	0.0009715683
18	0xb7d973c0	-2.5922316e-05
19	0xb895c9b0	-7.142441e-05
20	0xbae6f716	-0.0017621245
21	0x3b1dfd8e	0.002410743
22	0xbadcbd0d	-0.001684101
23	0x3b4f934c	0.003167349
24	0x3a1d8f9b	0.00060104736
25	0x3ac3cb68	0.0014937939
26	0x3aefcce0	0.001829531
27	0x3b2e1842	0.0026564752
28	0xba28c754	-0.00064383936
29	0x3af6bf0e	0.0018825249
30	0x3b06e363	0.002058231
31	0x3a7dfd50	0.00096889306
32	0xba0567f0	-0.0005089035
33	0x39aaad80	0.00032554194
34	0xbb18136c	-0.0023204936
35	0xba099f58	-0.00052498793
36	0xbac3e38c	-0.0014945134
37	0xbac1985e	-0.001477014
38	0x3a3325b0	0.0006833924
39	0x3b077679	0.002066998
40	0x3b44763a	0.0029977695
41	0x3b7382ac	0.0037156744
42	0x3b3da27a	0.0028935955
43	0x3b920519	0.004456174
44	0xba9bfb94	-0.0011900538
45	0xbb4cdd92	-0.0031259996
46	0xba7942dc	-0.0009508559
47	0xbac58cc2	-0.0015071856
48	0x3be411c5	0.006960126
49	0x3b5b9a1b	0.0033508602
50	0x3b2a944d	0.0026028336
51	0x3b109e53	0.0022067025
52	0x3b599ba5	0.0033204344
53	0x3b673ef3	0.0035285323
54	0x3af9f214	0.0019069337
55	0x3ae63cd0	0.0017565731
56	0x3b7c9dfc	0.0038546314
57	0x3ba093aa	0.0049004154
58	0x39e4ada0	0.0004361691
59	0x3b184d68	0.0023239497
60	0x3945c888	0.00018862088
61	0x3aff6a86	0.0019486703
62	0xba9ef760	-0.0012128167
63	0xba246efe	-0.00062726426
64	0x3ba3bcd8	0.004996877
65	0x3b8c29d5	0.0042774477
66	0x3b21595b	0.002461991
67	0x3ae8d540	0.0017763749
68	0x3a488421	0.0007649083
69	0xba99c769	-0.0011732402
70	0x3a8e1ac2	0.0010841715
71	0x3a549f66	0.00081109104
72	0x3a4ae770	0.00077401754
73	0xb9a72c60	-0.00031885784
74	0xbaa68578	-0.0012704572
75	0xbb248783	-0.0025105185
76	0xb95e8020	-0.000212193
77	0xb93b38b0	-0.00017854827
78	0xba2dbc98	-0.0006627529
79	0x3ab06e06	0.0013460524
80	0x3b8bf05f	0.004270598
81	0x3b5305d8	0.0032199528
82	0x3a9332c1	0.0011230336
83	0x3aeee0d2	0.0018224961
84	0x395fa940	0.00021329988
85	0x3a0da846	0.0005403798
86	0xbafd40fc	-0.0019321735
87	0xba635c64	-0.000867313
88	0xb93359ea	-0.00017104266
89	0x3a4cd2ec	0.0007813412
90	0x3ab2419e	0.0013599878
91	0xbaf76fec	-0.001887796
92	0x3aa83634	0.0012833537
93	0x3b33abef	0.0027415713
94	0x3b08fa07	0.002090098
95	0x3a9da8d0	0.001202846
96	0x38262080	3.9607752e-05
97	0x3a45bbe0	0.0007542949
98	0xba86c218	-0.0010281233
99	0x3a7a0cc0	0.0009538643
100	0x38344060	4.2975298e-05
101	0xb8f32190	-0.000115933944
102	0x38d2b530	0.00010047329
103	0xba66be9c	-0.0008802207
104	0x3982916c	0.0002490388
105	0x39b7d81c	0.00035065494
106	0x3b38df5a	0.00282093
107	0x3aa2edf2	0.0012430532
108	0xba0dda54	-0.00054112566
109	0xba88529c	-0.0010400596
110	0xbaa69490	-0.001270907
111	0x3a93a608	0.0011264691
112	0xbb0bca54	-0.0021330314
113	0xba4a4c64	-0.00077170716
114	0xbadf2652	-0.001702497
115	0xbb01a788	-0.0019783694
116	0xbb0a9bfd	-0.0021150105
117	0x3c01ecc6	0.007929986
118	0xba1ab281	-0.0005901233
119	0x3bb6c791	0.0055779894
120	0x3b9c5d79	0.004771885
121	0x3b60f70e	0.0034326944
122	0x3b5f4544	0.0034068385
123	0x3b314392	0.0027048332
124	0xb7b48a00	-2.1521933e-05
125	0x397bd708	0.0002401733
126	0x3a47661a	0.0007606462
127	0x398ee7c8	0.0002725704
128	0x3aac858d	0.001316236
129	0x3b3ed54e	0.0029118839
130	0xbaaee189	-0.0013342361
131	0x3a2ec1db	0.000666646
132	0x3ad2ff4c	0.0016097813
133	0x3ae7b378	0.0017677387
134	0xb9fd1878	-0.0004827415
135	0xbaa7fa13	-0.0012815617
136	0x3aa6ee06	0.0012735731
137	0x3b4eb6ac	0.0031541986
138	0x3b2e6730	0.0026611798
139	0x3b5ff52c	0.0034173233
140	0xba65bc99	-0.000876376
141	0xb846dc00	-4.741177e-05
142	0xba2ce3d0	-0.0006595226
143	0xba607d0c	-0.00085635553
144	0x3a9f6234	0.0012160004
145	0x3a0b2b16	0.00053088495
146	0x3ab48aca	0.0013774273
147	0x37573000	1.28261745e-05
148	0x3b92ce11	0.0044801314
149	0xb9d64ccc	-0.0004087448
150	0x39b629d0	0.00034744898
151	0x3aa8f2dc	0.001288976
152	0xb9c3a8bc	-0.00037319015
153	0xb951b42e	-0.00019998915
154	0x3a82de82	0.0009984525
155	0xb9876585	-0.00025824844
156	0x3aa67ee6	0.0012702614
157	0x3b1aa816	0.0023598722
158	0x3ab95a93	0.0014141373
159	0x3ac8b3fc	0.0015312429
160	0x384f73c0	4.9460446e-05
161	0x3aae15be	0.0013281626
162	0xb9f80c38	-0.0004731135
163	0x3ab883f8	0.0014077416
164	0xb9be3850	-0.0003628158
165	0x3ae9f388	0.0017849067
166	0x3a027150	0.00049759913
167	0x3a5dd560	0.00084622763
168	0x39ba5b82	0.00035544863
169	0x3b132590	0.002245281
170	0x3ab336bc	0.0013672928
171	0x3ad4bdf3	0.0016230926
172	0xbb26ccad	-0.0025451586
173	0x3ac9a77e	0.0015385
174	0x3a0667ec	0.000512718
175	0x3ac06eef	0.0014681498
176	0x3a880e9c	0.001038033
177	0xbb22a8dc	-0.0024819886
178	0xbb0a460a	-0.0021098875
179	0x3a9bb9c8	0.0011880929
180	0x3ae99970	0.0017822217
181	0xba7d1422	-0.0009654184
182	0xbabfcdd0	-0.001463348
183	0x3a2b6b4b	0.000653912
184	0xba21dc3e	-0.0006174481
185	0x3b06f95e	0.0020595412
186	0x3a18b154	0.0005824764
187	0x3a66fabb	0.00088111655
188	0xbad6d570	-0.0016390514
189	0xbad44ab2	-0.0016196577
190	0xb845cc80	-4.7158916e-05
191	0xbaa223d0	-0.0012370292
192	0xbac62dd6	-0.0015119861
193	0xba36f058	-0.0006978563
194	0x3a2ece5c	0.0006668323
195	0x39624a20	0.00021580653
196	0x3bb8f05a	0.0056438865
197	0x3bbef5ac	0.005827626
198	0xbac39ad8	-0.0014923466
199	0xbaf90af6	-0.0019000459
200	0xb89063c0	-6.885035e-05
201	0x3aee23f0	0.0018168669
202	0xba262d7d	-0.0006339176
203	0x3aad47d0	0.0013220254
204	0xbb390130	-0.0028229468
205	0x3af108bc	0.0018389444
206	0xbb81222f	-0.0039408426
207	0xbb8746f7	-0.0041283327
208	0xb9cb3e6c	-0.00038765685
209	0x3a47f53a	0.0007627789
210	0xbb136404	-0.0022490034
211	0xb9cf3554	-0.0003952185
212	0x3a7bf55a	0.00096114504
213	0x3b2caa88	0.0026346762
214	0x3791dfc0	1.7389539e-05
215	0x3b4671db	0.0030280265
216	0xbaa7efee	-0.0012812593
217	0x39a44286	0.0003133008
218	0x3a8085ab	0.0009805461
219	0xb9a20314	-0.0003090134
220	0xba9c92d2	-0.0011945611
221	0xbac42972	-0.0014965965
222	0x3a92bdbe	0.0011195464
223	0x3b22965a	0.0024808855
224	0xb9091940	-0.00013074744
225	0x3ab1587e	0.0013530401
226	0xbb3329da	-0.0027338178
227	0xbb530506	-0.003219904
228	0xbad35091	-0.0016122033
229	0xba5d623a	-0.0008445118
230	0x3a1a7f0d	0.0005893566
231	0x3b535c21	0.0032250958
232	0x3aef1450	0.0018240307
233	0x3ae292cc	0.001728618
234	0xba169ad0	-0.0005745115
235	0x3a8c60b4	0.0010709972
236	0x3a2cac94	0.00065869954
237	0x397fa140	0.00024378765
238	0x39be5140	0.0003630016
239	0x39a3fa70	0.00031276373
240	0x3bc9d4d3	0.006159404
241	0x3b4e7d71	0.0031507874
242	0xbb196f46	-0.0023412271
243	0xb9458900	-0.0001883842
244	0x3985d788	0.0002552832
245	0x3a12387c	0.0005577875
246	0xbafb0d38	-0.001915372
247	0xbb036b78	-0.002005307
248	0xbb1e6173	-0.002416697
249	0xba7db144	-0.0009677599
250	0xbadf7f6d	-0.0017051526
251	0x3a53a830	0.0008074073
252	0xbaabddbb	-0.0013112345
253	0xba1c4256	-0.00059608126
254	0xbb0e3bc4	-0.0021703104
255	0xba60585d	-0.0008558089

momentum_buffer f4 [2]
0	0xbb6429cc	-0.0034814952
1	0x3b642788	0.0034813602

momentum_buffer f4 [4]
0	0x3abcfc38	0.0014418429
1	0xb8744a40	-5.8243284e-05
2	0x3c09031a	0.008362556
3	0x3b497b18	0.0030743536

momentum_buffer f4 [48, 28, 3, 3]
0	0x3b890116	0.0041810377
1	0x3c12bb88	0.008955844
2	0x3c20ffc6	0.009826606
3	0x3bd048b0	0.0063563213
4	0x3c6bc244	0.014389578
5	0x3c3d65f9	0.011559957
6	0x3c68e216	0.014214059
7	0x3c42d226	0.011890924
8	0x3c091ccf	0.008368685
9	0x3c417568	0.011807777
10	0x3c990c3b	0.01868259
11	0x3c8cf707	0.017207636
12	0x3c3ab69e	0.011396078
13	0x3cc19e77	0.023635132
14	0x3cd40228	0.025879934
15	0x3c97c50c	0.018526576
16	0x3ce2b486	0.02767397
17	0x3cf32858	0.029682323
18	0x3b3e4cf6	0.0029037572
19	0x39bae394	0.00035646243
20	0x3aea97b4	0.0017897994
21	0x3aa370c6	0.0012469522
22	0xbab083fe	-0.0013467071
23	0xbaa99b2c	-0.0012939922
24	0x3bcbf01e	0.0062236926
25	0x3bd14668	0.006386567
26	0x3bc1e627	0.005917329
27	0xba9bb4c0	-0.0011879429
28	0xbbe1fde0	-0.0068967193
29	0xbc0a8f56	-0.0084570255
30	0xba5c2860	-0.00083983503
31	0xbc1bb7f0	-0.009504303
32	0xbc6d6327	-0.014488972
33	0xb99f9500	-0.00030437857
34	0xbc1287f0	-0.008943543
35	0xbc4d3407	-0.012524611
36	0x3a1f8c58	0.00060862815
37	0x3a928650	0.0011178944
38	0x3af934da	0.0019012943
39	0x3b9f55b7	0.004862513
40	0xba4ace58	-0.0007736436
41	0xbb141456	-0.002259513
42	0x3b828ebe	0.0039843014
43	0xbb242434	-0.0025045993
44	0x39dc6b80	0.00042041764
45	0xbbb2372c	-0.005438706
46	0xbb915aa0	-0.004435852
47	0x3b1e376e	0.0024141925
48	0xbbb9a750	-0.005665697
49	0xbc00e0ae	-0.007866068
50	0xbb5a4904	-0.003330768
51	0xbb839a4e	-0.0040161973
52	0xbc32208a	-0.010872016
53	0xbc1513cb	-0.009098957
54	0xbbf0f0ce	-0.007352925
55	0x3b64ca6c	0.0034910692
56	0x3c92020b	0.01782324
57	0x3b3a5df0	0.0028437339
58	0xba7cf500	-0.0009649545
59	0x3b0683b8	0.0020525288
60	0xbb1f2084	-0.0024280855
61	0xbc4d37d9	-0.012525522
62	0xbbdaf679	-0.006682214
63	0x3c06467a	0.008195514
64	0x3c52527c	0.012837049
65	0x3c862c69	0.016378598
66	0x3baf78d0	0.005354978
67	0x3c562278	0.013069741
68	0x3c91dad1	0.017804535
69	0x3c072ede	0.00825092
70	0x3c855b60	0.016278923
71	0x3cb371e7	0.021904899
72	0x3baed878	0.0053358637
73	0x3bdc69f5	0.0067264982
74	0x3b0619c8	0.0020462144
75	0x3bae3ed0	0.0053175464
76	0x3bfc4301	0.007698417
77	0x3b7798f4	0.0037780376
78	0x3c4cefbf	0.012508332
79	0x3c67aa32	0.014139699
80	0x3c0b7bb2	0.008513378
81	0xbc524e50	-0.012836054
82	0xbc2e5b12	-0.01064183
83	0x3acac558	0.001547019
84	0xbc1e2b04	-0.00965381
85	0xbc810b34	-0.015752412
86	0xbbeeac0e	-0.007283694
87	0xbbcebfd4	-0.006309489
88	0xbc6a1ace	-0.014288617
89	0xbc53357f	-0.012891172
90	0xb7a41e00	-1.9564293e-05
91	0x3b2b7320	0.002616115
92	0x391ceec0	0.0001496626
93	0x3beb9d61	0.007190392
94	0x3ba935e7	0.0051638964
95	0xbb763cf4	-0.0037572952
96	0x3c06bd99	0.008223915
97	0x3adf6d28	0.0017046081
98	0xbbc68320	-0.006058112
99	0x3c09182e	0.008367581
100	0x3c60031e	0.013672618
101	0x3c93d290	0.01804474
102	0x3be91a24	0.007113712
103	0x3c89aad8	0.016805097
104	0x3cbcf0ec	0.0230641
105	0x3c4ee04a	0.012626717
106	0x3c8d6116	0.017258208
107	0x3caf3339	0.02138673
108	0x3bdd7b97	0.006759118
109	0x3c014f3e	0.007892428
110	0x3c099924	0.008398328
111	0x3bd51889	0.006503169
112	0x3acf60bc	0.0015821676
113	0x3b862824	0.0040941406
114	0x3c0db92b	0.0086501045
115	0x3c103c17	0.008803389
116	0x3c3ef101	0.0116541395
117	0xba54e65c	-0.00081214844
118	0x3a817858	0.0009877784
119	0x3b32342c	0.0027191741
120	0x3b423809	0.002963545
121	0x3b0884b0	0.002083104
122	0x3ae5ba14	0.0017526769
123	0x3bfd9560	0.007738754
124	0x3a6f4d72	0.0009128667
125	0x3ac256b4	0.0014826865
126	0xb864d100	-5.4554082e-05
127	0xbbe262a8	-0.0069087334
128	0xbbf398c0	-0.0074339807
129	0x3b56b2a0	0.0032760277
130	0xbc07c6d4	-0.00828715
131	0xbc5f7a7f	-0.013640045
132	0x3bc6cb88	0.0060667433
133	0xbc2181b5	-0.009857585
134	0xbc1e2f7a	-0.009654874
135	0xbacbe908	-0.001555712
136	0xb923f1a0	-0.00015634904
137	0x3bd86925	0.006604331
138	0xbc20fe6c	-0.009826284
139	0xbc27948e	-0.010228289
140	0x3b3708fa	0.0027928934
141	0xbbf09ff3	-0.007343286
142	0xbbc2e54a	-0.0059477435
143	0x3ba5d4a1	0.0050607477
144	0x3b0ef712	0.0021814746
145	0x3b70aedc	0.0036725318
146	0x3bb92f55	0.0056513944
147	0x3b35ec68	0.0027759317
148	0x3aeda3bc	0.0018130462
149	0x3b9b6b2c	0.0047430005
150	0x3aae0484	0.0013276492
151	0x3a4b7ab8	0.0007762122
152	0x3b894b7c	0.0041899066
153	0x3ae7ea4c	0.0017693727
154	0xbb09b905	-0.0021014821
155	0xba5e38f8	-0.0008477117
156	0x3b604d8a	0.0034225904
157	0xbb033f14	-0.0020026611
158	0xbb299c51	-0.0025880525
159	0x3bc3f9ae	0.005980692
160	0x3baf06ca	0.0053413855
161	0x3bd1789d	0.006392552
162	0xbb8b5ccc	-0.0042530056
163	0xbc395e5e	-0.011314003
164	0xbc41bfd0	-0.011825517
165	0xbb8e7948	-0.004347954
166	0xbc7bd8e4	-0.015371535
167	0xbccc8b17	-0.024968667
168	0xbbc5a4c4	-0.0060316045
169	0xbc95bd9e	-0.018278893
170	0xbcc0aec2	-0.023520831
171	0x3a8c9ec4	0.0010728468
172	0x3b009963	0.0019622676
173	0x3c19d6cf	0.009389593
174	0xbba3eac0	-0.0050023496
175	0xbb8e2512	-0.004337915
176	0x3c0c536c	0.008564811
177	0xbbb537a4	-0.0055303145
178	0xbb506b3b	-0.0031802196
179	0x3c06270a	0.008188019
180	0x3c458a9a	0.012056971
181	0x3cbafc37	0.022825344
182	0x3cbe143d	0.02320301
183	0x3c831ecb	0.016005894
184	0x3cd3f98f	0.025875835
185	0x3ce5d7fa	0.028057087
186	0x3cab0ea8	0.020881012
187	0x3ccafe9e	0.024779614
188	0x3cdf5df0	0.027266473
189	0x3c538819	0.012910866
190	0x3c8c0c5a	0.017095733
191	0x3c483f2d	0.0122220935
192	0x3ca81ae6	0.020520639
193	0x3cb9b35f	0.022668539
194	0x3c6a48cc	0.014299583
195	0x3cbf3f94	0.023345746
196	0x3c89c75f	0.0168187
197	0x3c566456	0.013085445
198	0xbb281a24	-0.0025650347
199	0xbad68d98	-0.0016369103
200	0x39c7acb0	0.000380849
201	0x3b38e0ec	0.0028210236
202	0x3b4c98bd	0.0031218969
203	0x3a935276	0.0011239785
204	0x3b8698aa	0.0041075544
205	0xba9fcf90	-0.0012192596
206	0xbbb97964	-0.005660223
207	0x3b4feb52	0.0031725955
208	0xb985b610	-0.00025503384
209	0x3b2f1e84	0.002672107
210	0xbb4368c9	-0.0029817095
211	0xbb5fb729	-0.0034136272
212	0xbb239458	-0.0024960246
213	0x3a925fbe	0.0011167449
214	0x3b4e8508	0.0031512398
215	0x3b0f8df2	0.0021904674
216	0x3bbe10b2	0.00580033
217	0xbb1f254c	-0.0024283705
218	0xbbd3f2fd	-0.0064681754
219	0x3b073a8c	0.0020634262
220	0xbbfe76fb	-0.0077656484
221	0xbbf5afe4	-0.0074977744
222	0x3a0d6b30	0.00053946953
223	0xbb84f7ec	-0.004057875
224	0x3a2d1600	0.00066027045
225	0xbc3fb747	-0.011701412
226	0xbc4a10e8	-0.012333132
227	0x3bd15374	0.006388122
228	0xbc821cd0	-0.01588288
229	0xbcbdc0d8	-0.023163244
230	0xba5b4f08	-0.00083659636
231	0xbc5596f6	-0.01303648
232	0xbc823ad2	-0.015897188
233	0xbbea3ff7	-0.0071487385
234	0x3c4c9e7a	0.012488956
235	0x3c783c0a	0.015151033
236	0x3c9eb7cd	0.019374752
237	0x3bf1ee50	0.0073831454
238	0x3c9c0bf9	0.019048678
239	0x3cbba2af	0.022904722
240	0x3c50b9aa	0.012739578
241	0x3cd90b5c	0.026494674
242	0x3d08217d	0.033235062
243	0xbb8ae218	-0.0042383783
244	0xbb97c198	-0.0046312325
245	0xbb4b1880	-0.0030989945
246	0x3b3ec200	0.0029107332
247	0xbba4211c	-0.0050088298
248	0xbc4010c4	-0.011722747
249	0x38909900	6.8949535e-05
250	0xbc2040dc	-0.009781089
251	0xbc906898	-0.017628
252	0xbbfaeda8	-0.0076577254
253	0xbcaa1b1e	-0.020764884
254	0xbce10062	-0.027466003
255	0xbca1b918	-0.01974158

momentum_buffer f4 [10]
0	0xba109be1	-0.0005516392
1	0xbaf409d6	-0.0018618654
2	0xbb84faef	-0.004058234
3	0xbb170bfe	-0.002304792
4	0xbbaf3a1d	-0.005347504
5	0x3adce6c8	0.0016853446
6	0xbb1ede80	-0.0024241507
7	0xba518024	-0.0007991812
8	0xbbb6635b	-0.0055660433
9	0xb7e2299c	-2.6960675e-05
