23-王锦文-广州/第14周/MTCNN_pytorch/train_models/PNet_weight/checkpoints_epoch_29.tar (torch_old, 59574 bytes, 22 tensors)

pre_layer.0.weight f4 [10, 3, 3, 3]
000000 1b 8d 07 be 52 9f 00 be 1a f6 19 3d 93 be 32 be
       -0.13237421 -0.12560776 0.037588216 -0.17455511
000010 89 d0 82 be da 92 26 bd fc 04 00 3e 30 f1 39 3d
       -0.25549725 -0.040667392 0.12501901 0.04539603
000020 ff a9 5b 3e 59 d5 72 be 2b 2a 4a be e6 3b a6 bd
       0.21451567 -0.23714198 -0.19742648 -0.081168935
000030 f7 85 15 3d 36 8a d0 bc 7e d4 47 bd ef f8 25 3b
       0.036504712 -0.02545653 -0.048786633 0.0025325378
000040 0d 22 02 bd c7 55 26 be 68 45 09 3e 40 c2 63 bd
       -0.031770755 -0.16243659 0.13405383 -0.055605173
000050 68 f9 35 be b2 62 49 be af fd 04 be ad 91 10 3c
       -0.17770922 -0.19666556 -0.12987398 0.008823794
000060 69 94 5f be d2 4a bc 3d b4 0a e2 3c 52 3b 88 bd
       -0.21833958 0.09193958 0.027592994 -0.066519395
000070 76 15 af 3d 65 b0 99 bd 39 f2 12 be ab ef 1c be
       0.08549015 -0.07504348 -0.14350213 -0.15325801
000080 26 03 d3 bd 51 97 4e 3e 1f 4a f7 3c 16 4a ec 3d
       -0.10303335 0.2017491 0.03018671 0.11537568
000090 db 39 e6 3c 31 a6 23 3c ee 94 22 3e 7a 1c 36 bd
       0.02810376 0.009988354 0.15877125 -0.04446075
0000a0 ab f8 ac 3c 65 ee aa bb d2 d2 46 bb 27 9e 47 3c
       0.021114668 -0.005216407 -0.003033806 0.012183703
0000b0 12 b9 77 3d d3 4e 50 3e f5 26 be bd a7 61 8e 3d
       0.06047923 0.20342569 -0.09284774 0.069522195
0000c0 1f c0 b7 bd 03 78 1b 3e 6c 04 7c 3c e3 76 bc 3d
       -0.08972191 0.151825 0.015381914 0.09202363
0000d0 b0 8c 26 be e7 1e d9 3d 57 33 26 3e d5 b8 69 bd
       -0.16264606 0.10601597 0.16230522 -0.057061035
0000e0 7a 37 fe bd e2 3a 43 3d fd 39 2e be 82 36 23 be
       -0.12412925 0.047663577 -0.17014308 -0.15938762
0000f0 4b 99 b0 bd 8e 57 25 bc 05 5a e5 bd 53 7c 3b bd
       -0.08622988 -0.010091675 -0.111988105 -0.04577286
000100 ad 6a 24 3e 43 29 c5 3d 4b 1d 26 be b8 55 78 3d
       0.16056319 0.09627011 -0.16222112 0.060628623
000110 fc c4 2d 3e cd 55 a6 bd b8 ab 1a be 5a c3 49 be
       0.16969675 -0.08121834 -0.15104568 -0.19703427
000120 38 ff d5 bd 48 04 09 be 38 24 b9 bc 7c c8 ad 3d
       -0.1044907 -0.1338054 -0.022600278 0.08485505
000130 21 20 b6 bd d6 4a 6d be d6 a5 c4 bd 8f 7d 31 3d
       -0.08892847 -0.23173079 -0.09601943 0.043332633
000140 b0 20 41 be b9 4d 3a bd 31 7a 53 3e 65 02 b6 3d
       -0.18860126 -0.04548428 0.20652081 0.088871755
000150 e5 7b 20 3e 69 f9 e6 bc e7 32 65 be 40 45 ad bd
       0.15672262 -0.0281951 -0.22382699 -0.08460474
000160 2f a2 ad bc 0a 70 82 3d e4 1f 7f be 12 4c 1b 3e
       -0.0211955 0.06369026 -0.24914509 0.15165737
000170 53 88 3a be 38 29 79 bd ac 21 23 3e 92 bf 34 be
       -0.18216066 -0.060830325 0.15930814 -0.17651203
000180 9a ec ae bd 5b 2d 35 3e 4d 66 98 3d 5a 98 c3 bd
       -0.08541222 0.17693083 0.07441387 -0.09550543
000190 1d d1 23 3e c3 e2 d5 bd 4c 5f 0a be 2c f9 24 3e
       0.15997739 -0.10443642 -0.13512915 0.16110677
0001a0 9c 10 f0 bd cb 1c 0c be 49 2d 44 3d 46 e0 16 3d
       -0.11721918 -0.13682859 0.04789475 0.036834978
0001b0 9f 0b 1f 3e 34 bc f2 bd 55 7a 1c 3e bd 30 02 be
       0.15531777 -0.11852303 0.15281041 -0.12713905
0001c0 fd 76 27 3e ef 79 13 be 0a d7 5b 3c 97 5c 31 be
       0.16353984 -0.14401983 0.0134179685 -0.17320476
0001d0 a9 5c 6d bd 87 f7 20 be 1e 2f 42 3e fa 24 50 be
       -0.057949696 -0.15719424 0.18963286 -0.20326605
0001e0 f1 f4 17 be c8 ce 8c bd 1f d3 e5 3d f0 0f 29 bd
       -0.14839531 -0.06875378 0.11221909 -0.041274965
0001f0 b5 d4 bf bd ee 23 89 3d 79 b1 1e bb c4 f3 56 be
       -0.093667425 0.06696306 -0.0024214669 -0.20991427
000200 23 43 4e be 21 13 49 3c 21 45 28 3d 6b bb f3 3d
       -0.20142798 0.012272627 0.04108155 0.119009815
000210 23 6d 7f 3d e2 97 bc bd be 1d 14 3e 21 54 6f bc
       0.06235994 -0.09208657 0.1446447 -0.01460746
000220 fa 32 17 be be 10 22 bc 11 44 19 3d 58 d9 f4 3d
       -0.1476554 -0.009891687 0.03741843 0.119555175
000230 5d a9 d5 bd 71 62 be 3c 70 16 f4 3d 4e 9c 05 3e
       -0.10432694 0.0232403 0.11918342 0.13047907
000240 82 7b eb bd aa 5d 8c bd 31 8e 24 be a1 44 f6 3d
       -0.114981666 -0.068538025 -0.16069867 0.12024809
000250 c9 ee 01 be c3 8f e2 3d 6c 24 55 3e ea 95 3c bd
       -0.12688746 0.110625766 0.20814675 -0.046041407
000260 a2 18 0b bd f8 b5 8a 3d 9e 74 ce 3a 72 4e 1a be
       -0.03395904 0.06772989 0.0015751307 -0.15068987
000270 c9 2e fa 3d 39 91 af 3d 8d 03 22 be 8f 32 04 3d
       0.12215955 0.08572621 -0.15821667 0.03227478
000280 92 94 4c 3d 76 2d d6 bd 75 87 c6 3d 16 c8 9a 3d
       0.049946375 -0.1045789 0.09693805 0.075576946
000290 20 b2 ee bd 29 6f 53 be 0e c6 1b 3e 42 cd c7 bd
       -0.116550684 -0.20647873 0.1521227 -0.09755947
0002a0 94 5d 8b 3c 45 4f 4d be 5a 6e 36 3b 2b 9e 43 be
       0.017012395 -0.2004977 0.002783677 -0.19103305
0002b0 64 63 40 be 0b ab 9c bd a7 1a ac bd 59 49 3a be
       -0.18787915 -0.07649811 -0.08403521 -0.18192042
0002c0 6b 04 f9 bd 63 69 3b be 3d 76 7b bb 11 ec 51 be
       -0.12159046 -0.1830192 -0.0038370036 -0.20500208
0002d0 a2 a6 29 be 10 72 4a 3c 46 21 06 be 2a 6a 55 3d
       -0.16567472 0.012356296 -0.1309863 0.0521032
0002e0 92 07 e6 3c 5a 84 37 3e 20 96 78 bd a2 bd c0 3d
       0.028079782 0.17921582 -0.060690045 0.094111696
0002f0 63 c6 f7 bd fc e0 55 bd 11 f1 78 bd f5 4a 10 3e
       -0.12098386 -0.052216515 -0.060776774 0.14091094
000300 2f 70 d9 3d 0e d6 3c be a9 fe 1f 3e 13 00 24 be
       0.106171004 -0.1844103 0.15624489 -0.16015653
000310 ab 39 63 bd 01 f5 fd 3b e3 6a 23 3b d7 19 36 3d
       -0.05547492 0.007750154 0.0024935536 0.044458237
000320 d3 ca f1 bd fa 62 32 3e e6 53 39 be 17 e8 57 3e
       -0.11806264 0.17420569 -0.18098411 0.21084629
000330 2d 43 42 be bd 7a 35 3e 0f da 89 be f8 ca dc 3c
       -0.18970938 0.17722602 -0.26924178 0.026952252
000340 9b af 78 be 0e 14 22 bd 33 3c b4 bc 20 67 79 bd
       -0.24285738 -0.039569907 -0.022001361 -0.060889363
000350 eb aa 02 be 3e dc 0a be 91 ad 1d 3e e9 3c 9f bd
       -0.12760513 -0.13560578 0.15398242 -0.077752896
000360 8e 2d f4 3d 86 91 ff 3d 64 3b 1a 3e a7 1a c5 bc
       0.11922751 0.12478928 0.15061718 -0.02406056
000370 5a 1f a6 bd 90 b3 44 3d a0 95 68 be 69 39 55 be
       -0.081114486 0.048022807 -0.22713327 -0.20822681
000380 88 b2 ac bd c2 7e 17 3e 79 0a 2f 3e fa 00 15 bd
       -0.0843249 0.14794448 0.17093839 -0.036377884
000390 98 6c e8 bc 71 aa 04 3e 6e 8d 35 be 2b 11 a6 3d
       -0.028372094 0.12955643 -0.17729732 0.08108743
0003a0 ad ab a1 3d 93 e4 41 bd 1a 0e 1a 3d 64 0f 08 3d
       0.07894073 -0.047337126 0.037611105 0.033217803
0003b0 fc dc cc 3d 0d 6e 40 3d c1 a6 fd bd 02 35 03 3e
       0.10003087 0.046979953 -0.123853214 0.1281319
0003c0 b1 4a 22 3e 24 fe b7 bc 6f 5d b1 bd c4 33 7a 3e
       0.15848805 -0.02246005 -0.08660399 0.2443381
0003d0 41 e6 3a 3e 63 59 7a bc 55 8f 30 3e 6e 89 72 be
       0.18251897 -0.0152801005 0.17242177 -0.23685238
0003e0 f1 6c 15 3e ec 86 74 3d de 9e 68 be 4f 31 2d 3d
       0.14592339 0.059698984 -0.22716853 0.042283352
0003f0 3d c2 95 bd 10 80 88 3c 1e e0 3a 3e 4f d8 1c be
       -0.07312439 0.016662627 0.18249556 -0.1531689

pre_layer.3.weight f4 [16, 10, 3, 3]
000000 25 6e 62 bd 6e 4e 8a bd 74 46 8a 3d 16 e3 bf 3d
       -0.055280823 -0.067532405 0.06751719 0.09369485
000010 36 0d c2 3d b6 8c da bd 05 e5 c9 3d bc ae c6 bc
       0.09475176 -0.1067137 0.09858135 -0.024253242
000020 47 c4 b4 bd 51 95 71 3d 0c ef 26 bd 30 8e 0d be
       -0.088264994 0.05898029 -0.040755317 -0.13823771
000030 2d 70 db 3d 83 8d 22 bd af b3 d0 3c 05 fa 18 3e
       0.10714755 -0.039685737 0.025476305 0.14939125
000040 69 fc 00 bc ad 64 d6 bd 6f a8 c4 3d 33 1d 3f bc
       -0.007872679 -0.10468421 0.09602439 -0.0116646765
000050 94 ef c7 bd 1a 66 b8 3d 44 fa 70 3d a7 a1 1a 3e
       -0.09762493 0.09003849 0.058832422 0.15100728
000060 77 7b 3b 3d 6e c9 1d 3e b9 a6 48 bd 52 8f 10 be
       0.045772042 0.1540887 -0.048987124 -0.14117172
000070 b3 00 76 bd 7e 1f 0b be 59 eb 05 be d2 0e 6a bd
       -0.06005926 -0.13586232 -0.1307806 -0.05714304
000080 a7 aa cb bd 58 bf 62 bc d9 92 80 3d 7c 1a c1 3d
       -0.09944659 -0.013839565 0.06278009 0.094288796
000090 1c c0 14 3e ff d2 02 bd cb 98 0c be a6 7d 0d 3e
       0.14526409 -0.031939503 -0.13730161 0.13817462
0000a0 7e 6d e6 3d e8 c6 b7 bd 3d 06 b4 3d 13 6d cb bd
       0.11251353 -0.08973485 0.08790252 -0.09932914
0000b0 43 cd 51 3d 9f fd 84 3d ab 87 04 be 87 04 f6 bc
       0.051221143 0.06493687 -0.12942378 -0.030031456
0000c0 49 35 2c 3e ec cf 06 3e 0c cd d3 bd 47 ad f8 3d
       0.16817202 0.13165253 -0.10341844 0.12142425
0000d0 60 50 44 37 a9 20 34 3b d6 71 11 3e 8f 07 ed bd
       1.1701224e-05 0.0027485287 0.14203581 -0.11573707
0000e0 cc 7d 0f 3e 6a 48 ba 3d 85 35 fd 3d 99 39 01 be
       0.14012831 0.09095843 0.12363724 -0.12619628
0000f0 4c aa 8d 3d 14 06 69 bc 6d 3c ae bd c3 91 df bd
       0.06917247 -0.014222641 -0.08507619 -0.10916474
000100 9f 71 09 be e0 6c 1a bd 21 1d 23 3d 59 84 6d 3d
       -0.1342225 -0.037701488 0.0398227 0.057987545
000110 86 51 5a bd e2 65 bc 3c c0 39 ef 3d bf 5e 15 be
       -0.053300403 0.0229978 0.11680937 -0.14586924
000120 e7 06 36 3e ac 5e 3d 3e ab 2c b7 bd f3 6b 8a bd
       0.1777607 0.18493146 -0.089440666 -0.06758871
000130 16 d3 de bb a7 cc 3b 3e 78 5a 93 3d 35 3e a7 3d
       -0.0068000657 0.18339787 0.0719499 0.08166162
000140 ab 42 85 bc 06 bc 0d bc 2b 7b e3 bd 83 84 0e 3d
       -0.016267141 -0.008650785 -0.11107477 0.03479434
000150 87 f2 0d 3e 73 f3 b2 3d f3 ff 16 3e db fb de 3c
       0.13862048 0.087378405 0.14746074 0.027219703
000160 c6 be ee 3d c0 2b b1 bd 2c b7 14 3d dd 80 fa bd
       0.11657481 -0.08650923 0.0363075 -0.1223161
000170 54 c5 24 3d 32 68 fd bd 37 d0 19 3e d1 4c 0a be
       0.04022725 -0.12373389 0.15020834 -0.13505866
000180 97 45 25 3e fa 4e 88 3d 34 8c e1 bd 90 8c 03 3e
       0.16139828 0.066556886 -0.1101307 0.12846589
000190 61 75 0a be da 42 cd bd 39 84 01 3c e3 ca eb 3c
       -0.13521339 -0.100225165 0.0079050595 0.028783267
0001a0 76 b8 7f 3d 2b 73 a1 3d 43 f3 95 3d 26 ea cf 3d
       0.062431775 0.07883295 0.07321789 0.10152082
0001b0 d3 f0 44 bd 2e e5 c0 3c 6d 59 f9 3d 36 7c 1d 3e
       -0.04808123 0.023546781 0.1217526 0.15379414
0001c0 9f 8b a3 bd f3 cb 04 be 81 ff 87 bd 5a 66 ae bb
       -0.07985615 -0.12968425 -0.066405304 -0.00532226
0001d0 b5 85 d0 3b e8 7b 0b 3c 88 29 5b 3c e2 5e f0 3d
       0.0063635954 0.008513428 0.013376601 0.117368475
0001e0 ec ff 18 be a9 d0 f0 bd c7 f7 e6 bd ab a0 93 3d
       -0.14941376 -0.11758549 -0.112777285 0.07208379
0001f0 31 d0 41 be 67 35 f0 bd 04 aa df 3d dc 71 fd 3d
       -0.18927075 -0.11728936 0.109211 0.123752326
000200 fc 86 8d 3d 60 83 8b bd ea b6 6a bd cc 7b 0c 3e
       0.06910512 -0.06812167 -0.057303347 0.137191
000210 d3 39 ef bd d8 d1 91 bd ff 39 08 be 38 c2 02 be
       -0.11680951 -0.07120103 -0.13303374 -0.12769401
000220 f1 e6 f5 bd 8c b6 9d 3d 77 ad 17 3e fa d7 bf bd
       -0.12006939 0.07700834 0.14812265 -0.09367366
000230 29 f0 9e bd 9c 1b e1 3d 77 a6 6d bc 70 6c 4c 3d
       -0.07760651 0.10991594 -0.01450502 0.0499081
000240 a0 39 a7 3c b5 59 e6 3b be 47 c0 3c b9 7a 15 be
       0.02041322 0.007029737 0.02347171 -0.14597596
000250 13 e0 f4 bd 1a c2 1c 3e ee 8e bd bd 85 4a 6e 3d
       -0.11956801 0.15308419 -0.09255777 0.058176536
000260 4b e2 01 bd c8 76 2e be e1 77 20 bd 24 11 15 be
       -0.03170995 -0.17037499 -0.039176825 -0.1455732
000270 6e 3f 2b be 08 70 fb 3d c8 13 ab bc a8 0d 18 bd
       -0.16723415 0.12277228 -0.020883456 -0.0371224
000280 80 62 13 be 07 3d 1d be 32 c7 d4 3d 90 7c a1 bd
       -0.14393044 -0.15355311 0.10389556 -0.078850865
000290 11 0c e6 bd b1 38 db bd 5b cc 14 3e ce 01 c7 3b
       -0.1123277 -0.107041724 0.1453108 0.006073213
0002a0 46 08 f8 ba e9 34 03 3e c2 7f b7 3d a9 f1 bc 3c
       -0.0018923364 0.12813152 0.08959915 0.023064451
0002b0 5b 2b 66 bd 41 c7 02 3e 7e 72 f6 3d cd 75 3d bc
       -0.05619369 0.12771322 0.120335564 -0.01156373
0002c0 40 61 9e bd f1 ba 21 3e d2 b4 a6 bb c1 45 0a bd
       -0.07733393 0.15793969 -0.0050874734 -0.03375793
0002d0 5a 21 a2 3d 70 5f d9 bd 35 b6 02 bd 82 37 69 bd
       0.079165176 -0.106139064 -0.031912047 -0.056937702
0002e0 6c 3a 80 bd 9c 52 1f bd ab 0d 80 bd c7 b9 62 bd
       -0.06261143 -0.03889714 -0.06252607 -0.055352952
0002f0 92 e8 28 3d 93 9a 72 bc 6e f8 e6 bc 19 4c d5 bd
       0.04123742 -0.014807361 -0.028194632 -0.10414905
000300 e2 56 bd 3c 3b 92 a1 3b 4b 35 b2 bd 15 18 a6 3d
       0.023112718 0.004930762 -0.08701571 0.08110062
000310 8a 86 a3 3d e7 ee 61 3d 8d 82 34 bd 4a 9a 4f 3d
       0.07984646 0.055159476 -0.044069815 0.05068425
000320 58 49 8b bd 95 7a 63 3d 0c b3 89 bd 11 b8 0a ba
       -0.068010986 0.055536825 -0.067236036 -0.000529171
000330 d4 d2 de 3d 8b 25 94 bd d8 80 c3 bc b0 d6 0c 3e
       0.10880056 -0.07233723 -0.023865148 0.13753772
000340 0c c0 a1 3d 7a 17 e7 bc d6 16 da 3d 65 27 45 bd
       0.07897958 -0.028209437 0.10648887 -0.048133273
000350 ec 19 09 3e 18 1d ff 3d b9 f8 c4 3c f6 f0 aa 3d
       0.13388795 0.12456721 0.024044381 0.08346741
000360 1b e1 4a 3b de 8b c4 3c 48 48 38 bd 10 7a 39 3e
       0.0030956927 0.023992475 -0.044990808 0.1811297
000370 80 7f 43 bd 3b 9c 18 3e 29 b3 17 3d 56 94 09 3d
       -0.047729015 0.14903347 0.037036095 0.03358873
000380 02 bf 91 3c 6d 0c 82 3d 9c 79 f1 bc 85 db 1e bd
       0.017791275 0.06350026 -0.029476933 -0.03878357
000390 e9 5a 12 be 74 d4 e1 bd 91 34 d8 bc 58 d9 8f 3d
       -0.14292492 -0.1102685 -0.026392253 0.07023877
0003a0 4f a6 f4 3d bf 43 28 3c 30 b4 2e 3e c6 f6 04 be
       0.11945783 0.010270058 0.17060924 -0.12984762
0003b0 cb 89 d0 bb c5 b5 ef 3d 52 b6 03 3e 2a 01 bb bd
       -0.0063640825 0.11704592 0.12862518 -0.091310814
0003c0 e4 38 a8 bd dc 97 c1 bd 32 ee 91 3d a1 6a 3f 3e
       -0.08213976 -0.09452793 0.0712551 0.1869302
0003d0 76 e1 3f bc 33 aa 19 be 5a bb 18 3e 90 99 0d 3e
       -0.011711469 -0.15006332 0.14915219 0.1382811
0003e0 a1 33 6a bd 80 aa 12 3d 0b 70 c8 bd f0 65 d4 3d
       -0.057178143 0.035807133 -0.097869955 0.103710055
0003f0 ee dd bb bd 77 77 17 bd 68 fa 47 bd 9d b0 94 bc
       -0.09173189 -0.036979165 -0.04882279 -0.018150622

pre_layer.3.bias f4 [16]
000000 e2 87 0f 3e 84 c6 c5 3d 88 2d 8b 3d d8 e7 ec 3d
       0.14016679 0.096570045 0.06795794 0.11567658
000010 58 64 3d 3e b6 3f 44 3e af a0 1c 3d bd 3b 37 bd
       0.1849531 0.19164929 0.038239177 -0.044734705
000020 be 38 11 bd 68 4c b1 bc a2 7b 94 b9 f2 86 05 bc
       -0.035454504 -0.021642879 -0.00028320873 -0.008149849
000030 3b 00 a6 3d e7 ad d6 bc 11 65 12 3d db d2 c1 3c
       0.08105513 -0.02620597 0.035740916 0.023660114

pre_layer.5.weight f4 [32, 16, 3, 3]
000000 9c d0 3f bd f0 33 67 bd 2d ff c3 3c aa 1d 94 3d
       -0.046829805 -0.056446016 0.023925388 0.072322205
000010 c5 85 d0 3d 9c 2f 9f 3c 1d bf 27 bc 3b 43 d9 3d
       0.101817645 0.019431882 -0.010238436 0.10608526
000020 97 af 26 bd 0b 06 6b bb 91 23 ef bc 42 7b a9 3d
       -0.0406948 -0.0035861756 -0.029191764 0.08275463
000030 1a d3 d0 3d a5 9b ff bd 84 09 87 bd 3c d5 9f bc
       0.101965144 -0.12480859 -0.06593612 -0.019510858
000040 ab 62 fe bd 8e 64 33 3d 72 d8 9f 3d bb 9f e6 bd
       -0.12421163 0.04379707 0.078049555 -0.11260935
000050 78 e6 cc 3d 55 94 de bd a0 4c b9 bd bd f1 f5 3d
       0.10004896 -0.10868136 -0.09047818 0.120089985
000060 29 e9 42 3d 7f 64 db 3d d3 98 e6 bd c7 c8 20 3d
       0.04758564 0.107125275 -0.11259618 0.039253976
000070 4a 46 5d 3d 97 9c 2f bd c9 4d ca bd 0f 75 a9 bd
       0.05402211 -0.042873945 -0.098781176 -0.0827428
000080 e8 ce dd 3c ba 4e 5d bd c1 f8 89 bd 99 d2 88 bd
       0.0270762 -0.054030158 -0.06736899 -0.06680793
000090 9f 45 d6 bc 5e e8 66 3d ca d9 05 bd ce 9d e9 bc
       -0.026156245 0.056373946 -0.032678403 -0.02851763
0000a0 d5 d5 01 3d 11 8a c5 3d 83 de c2 3c e5 b1 3a bd
       0.031698067 0.09645475 0.023787742 -0.04557981
0000b0 fa 23 c5 bd f7 bd d1 3b 4d 9d 89 3d 99 d7 80 bd
       -0.096260026 0.0064008194 0.06719456 -0.06291122
0000c0 b5 2c 0e bd 07 fb 05 3e 68 ad cf 3d ae 9d af bc
       -0.034710605 0.1308404 0.101404965 -0.021437492
0000d0 5b a4 88 3d 99 94 19 bd 35 3d 73 bd e7 0d cb bd
       0.06671973 -0.03749523 -0.059384543 -0.09914761
0000e0 a0 84 df bc 82 3f 6f 3d 0b 98 7b bc 0c eb b6 bd
       -0.02728492 0.058410175 -0.015356074 -0.089315504
0000f0 a3 84 be bd 5d 3d 6a 3c a9 b3 85 3c 5e ae 7f bc
       -0.09302642 0.014296857 0.01632102 -0.015605537
000100 8b d3 a0 bd 5e d6 22 3d e3 98 b4 3d 58 e1 b5 3d
       -0.078528486 0.039755218 0.08818223 0.088808715
000110 88 b0 07 bd 8b 3e 7b bd 37 15 a8 3d 7d e5 bf 3d
       -0.033127338 -0.061338942 0.082071714 0.09369943
000120 53 ba ab bc df 3e d0 3c 05 e9 29 3d 65 73 2f 3a
       -0.02096287 0.025420604 0.04148199 0.00066929153
000130 e7 7b 9b 3c 6f e1 70 3c 4b be dc bd 5c d0 da 3d
       0.01897998 0.014702185 -0.10778483 0.10684273
000140 72 e5 44 bc 0e d1 8d 3d 76 85 db bc 4c 5d 8c 3d
       -0.012017595 0.0692464 -0.026797038 0.068537325
000150 07 f9 37 3d 0e 6f c7 3d ba 8b d1 bc 59 60 26 3d
       0.044915225 0.09737979 -0.025579322 0.040619228
000160 46 38 e2 bd a7 9c 18 bd 19 b9 ed 3c 79 fa 68 3d
       -0.110458896 -0.03725877 0.029018926 0.056879494
000170 3a 04 1e bd d2 34 a6 3d 9a 3f 84 3c 9b 93 b7 3d
       -0.03857825 0.081155434 0.016143609 0.089637004
000180 7b 0c be 3d 66 fc 0a bd 3a 01 5d bc f3 1a b1 bd
       0.09279724 -0.033932112 -0.013489062 -0.08647718
000190 46 d3 cb 3d 1d 42 8c 3d 0b 9c 83 bd fa ac 74 3c
       0.099524066 0.068485476 -0.06426247 0.014933819
0001a0 95 1b ec 3d 53 57 ad 3d 8d 96 2d 3d 63 8f 97 bd
       0.11528698 0.084639214 0.042379905 -0.07400396
0001b0 a1 e4 ef bc dc 85 19 bc 07 04 92 3b dc a8 4c bc
       -0.029283823 -0.0093702935 0.0044560465 -0.012491431
0001c0 d2 c1 68 bd 7a f4 4e 3d 9c ec 2a bd c5 80 a7 3d
       -0.056825466 0.05052612 -0.041729555 0.08178858
0001d0 b0 d4 c6 bd d2 c2 72 bd 0b d3 79 3d 5a 3e e0 3d
       -0.09708536 -0.059267826 0.060992282 0.109493926
0001e0 1c aa 25 bc 1d 79 98 3c f8 29 7f bd 8a 51 ce 3c
       -0.010111358 0.018612439 -0.062295884 0.025185365
0001f0 74 d2 1b 3c 9a 7c b6 bd f0 2c e6 bc a1 5a 57 bd
       0.009510625 -0.089104846 -0.0280976 -0.052576665
000200 c5 ce ac 3c 1c 73 6f 3c a0 56 80 3d ee aa c2 3d
       0.02109469 0.014614847 0.062665224 0.095052585
000210 a3 66 79 bd c8 14 8f 3d 6f 1a 5c bd 6e 36 57 bd
       -0.060888898 0.069863856 -0.053736147 -0.052542143
000220 7c c3 f1 ba ac f6 23 3d 5c 62 9d 3d 89 6f b4 3c
       -0.00184451 0.040030167 0.07684776 0.02202584
000230 f5 d2 be 3d 66 9d 98 3d f0 19 04 bc f5 be b6 bd
       0.093175806 0.07451896 -0.008062825 -0.08923141
000240 6c af 44 3d ab 9a 80 bd 8d 56 b4 3d 41 35 36 3d
       0.048018858 -0.062795006 0.08805571 0.04448438
000250 dc d9 18 3d 93 32 37 3d 16 b0 b3 bd 72 21 a4 3d
       0.037317142 0.044725966 -0.0877382 0.08014192
000260 e7 c0 c8 3d a4 e8 17 3d ca b1 f4 bd b8 24 ef bd
       0.09802418 0.037087098 -0.11947973 -0.116769254
000270 e1 64 af 3d f0 f8 cf 3d 6b 16 db bd 06 68 a4 3d
       0.08564163 0.10154903 -0.10697635 0.080276534
000280 54 97 b5 3d 4d e9 4d 3d 82 bf 8c bc b0 48 ae bc
       0.08866754 0.05027132 -0.017181162 -0.021274894
000290 51 0d ba 3d 62 77 80 3d 55 89 24 bc d8 15 2d 3d
       0.09084571 0.062727705 -0.010042508 0.04225716
0002a0 2a 49 ff bc 0e 56 9c 3c 8d a8 01 bd 2b 96 b5 bd
       -0.031162817 0.019084003 -0.031654883 -0.08866533
0002b0 7f b0 30 bc 04 17 2d 3d 56 1d 26 3d 6f 32 9b bd
       -0.010784267 0.042258278 0.04055532 -0.07577979
0002c0 1f e3 bc bd 1b 25 e4 3d de e6 9f 3d c9 24 ff bc
       -0.092230074 0.1113989 0.07807706 -0.03114547
0002d0 23 97 8a 3c 14 66 1c bd 7d 34 d4 bd 0e 03 8e 3d
       0.01691777 -0.038183287 -0.10361574 0.069341764
0002e0 5e 3e 96 3c 5c e1 6f bd 38 44 13 3d 88 0b 10 be
       0.018340286 -0.05856453 0.03595373 -0.14066899
0002f0 bc 5e be 3d c2 8d b7 bd ef 05 4d bd 54 81 82 3d
       0.09295413 -0.08962585 -0.050054487 0.06372324
000300 25 d5 a7 bd 53 7d 3b bd 5b 53 96 bd 5b 10 f5 3c
       -0.08194951 -0.045773815 -0.073401175 0.029915025
000310 f0 7e 14 3a a6 0b e8 3c a1 8d 32 3c 5f 15 89 b8
       0.0005664667 0.028325867 0.010898025 -6.53665e-05
000320 64 1f 68 bd 1d e3 3b bd 17 e7 50 bb 9a 8c b4 3c
       -0.05667056 -0.04587089 -0.0031876022 0.0220397
000330 8a e2 cc bd 1f 7c 95 3d 7f 8f 95 3d f6 bd fb bb
       -0.100041464 0.07299065 0.0730276 -0.007682557
000340 97 1c 93 3d f9 28 f4 bd 20 0b 65 bd 64 97 9d bc
       0.071831875 -0.119218774 -0.055918813 -0.019237228
000350 a8 9d a3 bd cc 22 ca bd 8a e4 9a bd 78 f2 58 bd
       -0.07989055 -0.09869918 -0.075631216 -0.05296561
000360 8f 34 06 bd 5d c4 d6 bd b4 6c 90 3d 4d 97 bb 3d
       -0.032764968 -0.10486672 0.070519835 0.09159718
000370 28 a0 e6 bc 57 9e d1 bc ff 99 bc bd 84 86 96 bd
       -0.02815254 -0.025588198 -0.0920906 -0.073498756
000380 c0 4f 10 bd 71 5a 6a 3d 80 25 54 3d f4 d2 1f 3d
       -0.035232306 0.057215158 0.051793575 0.03901954
000390 06 53 bc bc 19 a3 b1 bc 29 31 d8 bc bd 0b 57 3d
       -0.022988807 -0.021684216 -0.026390629 0.05250143
0003a0 ac 74 75 3d 67 1b 39 3d 27 22 35 bd 7b a4 80 3d
       0.05992572 0.04519215 -0.044222023 0.06281372
0003b0 0c 7e 99 bd 1d 5d 9e bb 93 3c 1a bc 29 bf 75 3d
       -0.07494745 -0.0048328773 -0.009413856 0.059996758
0003c0 0e 63 ff bb 2d 63 82 bc 5d 41 d4 bd f3 d8 8a bc
       -0.0077937907 -0.015916431 -0.103640296 -0.016949153
0003d0 32 0d b9 3c 9a 51 35 3d 40 32 63 bc 03 85 c1 3c
       0.0225893 0.044267274 -0.013866961 0.023622995
0003e0 69 e2 8f 3b ba 3d 8e bd 8e 7c fb ba aa 92 35 3d
       0.004391004 -0.06945367 -0.00191869 0.044329323
0003f0 29 30 91 bd f4 3f 07 3d 2b e0 b0 bc 78 c2 08 3d
       -0.07089264 0.033019975 -0.021591267 0.033388585

pre_layer.5.bias f4 [32]
000000 07 de a8 3c e3 6b 54 bd 66 69 1f 3c 9b 75 77 3c
       0.020613683 -0.0518607 0.009729719 0.015103723
000010 29 10 a8 3d 80 28 42 bd ee 60 14 3b ce 92 13 3e
       0.08206207 -0.047401905 0.0022640782 0.1441147
000020 1f 4e ba 3d 1d 18 92 bc 88 37 d9 bc c5 1f 24 bd
       0.09096932 -0.017833764 -0.026515737 -0.04006936
000030 c5 de 7a bd 75 31 06 bd bb 3d 04 3e a8 b1 db 3c
       -0.061247606 -0.03276201 0.12914173 0.026818112
000040 a1 34 9e 3d 6b 71 e6 bc 0e de 5d 3d 2f 8f c5 3d
       0.07724882 -0.028130254 0.054166846 0.09646451
000050 81 df a0 3c f8 a7 14 bd 02 23 44 bd af da 86 bc
       0.019637825 -0.036293 -0.04788495 -0.016461698
000060 ea 72 3c bd 8f ad f7 3d 5f ff 52 bd 76 78 64 3d
       -0.046008028 0.120936505 -0.051513072 0.055778943
000070 f0 a6 92 3d ee c9 81 bd bc 11 4c bd 95 e5 21 3e
       0.07160747 -0.06337343 -0.0498216 0.15810235

conv4_1.weight f4 [2, 32, 1, 1]
000000 04 b3 4d 3e fd 36 91 bd 9a 89 0a 3e 8b 28 81 3e
       0.2008782 -0.07090566 0.13529053 0.25226244
000010 68 c7 66 3e ec a1 07 3c 10 9f 5d be 7e a3 1a be
       0.22537005 0.008278351 -0.21642709 -0.1510143
000020 9d 64 03 3e b7 57 b3 be 8c b3 8b 3e 7f f9 42 3d
       0.1283135 -0.3502786 0.2728542 0.04760122
000030 b1 bc db 3d 72 9b 4f 3d 9f c1 d9 3e 03 1f cd be
       0.107293494 0.050685354 0.42530534 -0.40062723
000040 f9 d8 8a be 0f 27 0f 3e 46 af 1d 3f c9 9a 9e 3e
       -0.27118662 0.13979743 0.6159557 0.30977467
000050 a2 fe 5e 3e 8b 6f 80 be 05 db 58 3e 7d c0 74 be
       0.21776822 -0.250851 0.211773 -0.23901553
000060 31 14 5a be cb 15 8b be 00 85 0d bd 0c aa d9 be
       -0.21296765 -0.27165064 -0.034550667 -0.42512548
000070 6b ae 11 be 9f c4 93 be 77 cd 75 be 4f 31 50 3d
       -0.14226691 -0.28860947 -0.2400416 0.050828274
000080 19 6e 97 3d 0b f2 f8 bd 06 1e 95 bd 44 c1 b1 be
       0.07394046 -0.12155541 -0.07281117 -0.34717762
000090 1e c7 d7 be fc 1e a0 3c 0d b4 8f 3e 0b f9 fd 3e
       -0.42144102 0.019546025 0.28067055 0.49604067
0000a0 b7 42 9d 3e ff dc c9 be b0 de c7 be 2c ff db 3d
       0.30714962 -0.3942642 -0.39037085 0.107420295
0000b0 79 f0 f9 3d 53 86 db be ba 2c 34 be 70 6b 90 3e
       0.1220407 -0.4287592 -0.17595187 0.28206968
0000c0 86 af 55 be 69 1b 94 3e b0 54 c9 be 04 3c 07 bf
       -0.20867738 0.28927162 -0.39322424 -0.5282595
0000d0 d3 5f a5 3e be 08 12 3e f2 e8 18 3e 96 a4 4a 3e
       0.3229967 0.14261147 0.14932612 0.19789347
0000e0 07 a1 35 bd b3 2c ea 3e 1b 2c f9 3d e2 56 f9 bc
       -0.04434302 0.45737228 0.121666156 -0.030436937
0000f0 ed d7 56 be 48 4c b5 3e 70 4b 5f be db 5a b4 be
       -0.20980807 0.3540976 -0.21806121 -0.35225567

conv4_1.bias f4 [2]
000000 3a 99 56 3d ce 98 56 bd
       0.052392222 -0.05239182

conv4_2.weight f4 [4, 32, 1, 1]
000000 a5 24 a6 bd 6f 88 e6 bd 0d 9a 31 3e 3e ca b2 3e
       -0.08112458 -0.112564914 0.17343922 0.34919924
000010 b6 12 52 be 0f fb a3 3e 08 75 8b 3e 34 a2 f8 3d
       -0.2051495 0.3202748 0.27237725 0.12140313
000020 90 d9 8a 3d b9 5e c8 be b1 33 24 be 4e 86 31 bd
       0.06779778 -0.39134768 -0.16035344 -0.043340974
000030 a6 e8 9f be 48 e4 b1 bd 79 ae 95 bd 18 5a 20 3e
       -0.31232184 -0.08686119 -0.07308669 0.15659368
000040 c0 23 91 3e 6b be 6f 3e e9 77 ef 3c cb 75 8b bd
       0.28347588 0.23412482 0.029231982 -0.068095766
000050 76 c3 c6 be b2 99 4b 3e 7b b2 cc 3e 79 f7 a5 3e
       -0.38821 0.19882849 0.3997992 0.3241537
000060 b7 8a a1 be ac 7a 85 bd f5 13 b7 bd 79 53 0a be
       -0.31551144 -0.065175384 -0.089393534 -0.13508405
000070 4e 0b 59 3d 37 a7 ce be 94 0f da bc 67 ab 6c be
       0.052989297 -0.4036195 -0.026618756 -0.2311226
000080 70 59 e7 bd 97 dc 9f bd 4d f7 9e be 53 a8 83 be
       -0.11296356 -0.07805746 -0.3104805 -0.2571436
000090 85 0d 79 3e b2 d3 76 be 84 33 6f 3e 86 76 cd 3d
       0.24321564 -0.24104193 0.23359495 0.10032372
0000a0 20 5d f0 3d d6 d8 b2 be 38 f5 32 bd 78 b8 b3 3e
       0.11736512 -0.34931058 -0.04369089 0.35101676
0000b0 9e fa ea bc 58 b0 50 3e 92 38 24 be f1 0c 93 3e
       -0.028683957 0.2037977 -0.16037205 0.2872081
0000c0 03 73 b4 be 8f ac 10 be 14 db 67 3e a1 6a 93 be
       -0.35243997 -0.14128326 0.22642165 -0.2879229
0000d0 20 07 9e bc cb 8d 31 be 5b f4 14 3e 5f b6 34 be
       -0.019290507 -0.17339246 0.14546339 -0.17647694
0000e0 af c3 e8 bd 49 0e ac 3e 82 45 76 3e 3f c6 3f bd
       -0.11365449 0.3360465 0.24049953 -0.04681992
0000f0 6a e3 e0 bc 01 63 8a be 6f e1 1a bd ef f3 93 3d
       -0.02745219 -0.2702866 -0.037812646 0.07224261
000100 1e 63 b7 3d 67 97 5d be 56 c8 81 be 77 78 b8 bd
       0.08954452 -0.21639787 -0.25348157 -0.09007352
000110 d9 b0 5d 3e 7e aa cf be da 81 7d be df f0 a8 3e
       0.21649493 -0.40559763 -0.24756566 0.3299627
000120 25 a6 e2 3d 2f 22 35 3e 56 79 80 3e 69 98 91 bd
       0.11066846 0.17688821 0.25092572 -0.07109148
000130 1f 32 f9 bd 99 89 94 be f6 f9 58 3e 58 11 54 be
       -0.12167763 -0.2901123 0.21189103 -0.20709741
000140 35 03 74 be 5a 5b d1 3d cb 89 00 bd 88 d4 b0 3e
       -0.23829348 0.10222502 -0.03138141 0.34537148
000150 42 d3 86 ba f8 a6 a5 be a2 b9 0e 3e 7f c9 71 be
       -0.0010286348 -0.3235395 0.13938001 -0.23612021
000160 bb 1c cb 3d a4 04 9a be b9 02 21 3e 45 3f e1 3d
       0.09917589 -0.30081666 0.15723695 0.10998396
000170 ce cf 1f bc 75 98 69 3b cf 8e f4 3d ca c5 ba be
       -0.009754134 0.003564385 0.11941301 -0.36479026
000180 f9 88 9b be 8d 17 8d 3e f7 fc c0 bd 65 0f e6 3d
       -0.3037794 0.2755703 -0.09423249 0.11233405
000190 d4 f3 64 3e 93 59 8f be 6d 81 28 3e ff 46 cf bd
       0.22358638 -0.27998027 0.16455622 -0.10120963
0001a0 8b 24 99 be d2 9c 8b be 31 11 ed bc e1 a8 ba 3e
       -0.29910693 -0.27268082 -0.028938862 0.3645697
0001b0 36 cc 56 3e b2 db 9c be f5 8c b6 be 7c 79 ad be
       0.20976338 -0.30636364 -0.35654417 -0.33881748
0001c0 35 13 af bd 89 53 3a be 76 9c 21 3e 49 13 e4 bd
       -0.08548585 -0.18195929 0.15782341 -0.11136491
0001d0 00 f5 39 be 1e 78 38 be c6 12 c3 be 24 a8 26 be
       -0.18159866 -0.18014571 -0.3810026 -0.16275078
0001e0 dc ca 66 be 56 2b ac 3b b0 a8 68 bd eb 6d be 3e
       -0.22538322 0.0052541895 -0.056801498 0.37193236
0001f0 ec d5 89 3e 49 1e 87 be 76 a7 c8 be 77 8d e7 3c
       0.26921022 -0.26390293 -0.39190263 0.028265698

conv4_2.bias f4 [4]
000000 19 30 0c 3d e0 ab 96 bd 9f 89 1f bd 97 65 b8 3d
       0.034225557 -0.07357001 -0.038949605 0.09003752

conv4_3.weight f4 [10, 32, 1, 1]
000000 5a d9 6a 3e b1 65 8e 3e f7 c5 ad bd 4e c5 04 be
       0.22934476 0.2781196 -0.084850244 -0.12965891
000010 27 8f d4 bc 39 4f 2f be d1 7f 38 3e 59 df 8b 3e
       -0.025947167 -0.17120065 0.18017508 0.27318838
000020 ea e8 90 3d 19 15 39 be ce ad 19 3e 56 79 29 be
       0.07075675 -0.18074454 0.15007707 -0.16550192
000030 ae 36 8a be be 25 b8 be c6 fe 37 bd 4b 5d ae be
       -0.26994842 -0.35966295 -0.044920705 -0.34055552
000040 08 25 58 be 0a c6 52 3d ba c1 80 3d 81 64 b4 3e
       -0.21107876 0.051458396 0.062869504 0.35232928
000050 b9 50 3d be 59 3b e6 bc c1 a4 1b be 88 c4 98 3e
       -0.18487824 -0.028104471 -0.15199567 0.2983744
000060 ee 20 64 3c f1 36 08 bd 7b 3f 73 3d e7 75 b5 bc
       0.013923867 -0.03325552 0.05938671 -0.022150947
000070 81 ba de 3d c9 43 07 bc 18 58 d3 3a f1 a9 3e 3d
       0.108754165 -0.008255907 0.0016124276 0.046548788
000080 5a a0 b6 be 7d 31 5a be 0c 38 a1 be 58 67 65 be
       -0.35669214 -0.21307941 -0.31488073 -0.22402704
000090 bf 2e 0c 3e a7 68 99 be 48 9a a2 be 99 ce b0 3d
       0.13689707 -0.29962656 -0.31758332 0.086331554
0000a0 49 4b 6a bc bf 1f 73 bd c4 5b 65 3e 81 b6 25 be
       -0.014300176 -0.059356447 0.22398287 -0.16182901
0000b0 a9 a8 45 bd 5e 04 c2 3d 7e c9 ad 3e 14 8e 81 be
       -0.04825655 0.09473489 0.3394279 -0.2530371
0000c0 ae 10 14 3e d6 56 51 be 59 03 a8 bd e9 41 d8 3d
       0.14459488 -0.20443282 -0.082037635 0.10559446
0000d0 db 6d c1 ba 19 ee 2c be bd 16 2d 3e e7 7e 87 be
       -0.0014757471 -0.16887702 0.16903205 -0.26464006
0000e0 c7 c1 0f bc ce 11 91 be c3 6f 3c be 4c b9 73 3e
       -0.008774227 -0.28333896 -0.18402009 0.23801154
0000f0 61 12 7f 3e ca de 52 bd 5d 21 b1 3e 07 4d 5a 3e
       0.24909355 -0.051482 0.34595767 0.21318446
000100 c2 7b 6f 3e 89 34 22 3e 76 d0 7b 3e 5b 56 25 be
       0.23387054 0.15840353 0.2459124 -0.16146223
000110 2d a1 51 3d 63 e3 78 3e 43 b8 42 3e dc d6 a7 3d
       0.0511791 0.24305491 0.19015603 0.08195278
000120 a4 33 26 be f3 bc 6f bd 3f 17 bf bd 2d 80 d9 bd
       -0.16230637 -0.058529805 -0.09330606 -0.10620151
000130 e6 da 5f be 4f 2f 97 3d 93 64 99 3e fe c9 be 3e
       -0.21860847 0.0738207 0.29959545 0.37263483
000140 9c b2 0f 3e 31 5e 6c bc 98 c2 bf bd 26 c3 43 bc
       0.14032978 -0.014426754 -0.09363288 -0.0119483825
000150 1b 51 bc 3e 6c aa ae be 0e b8 b9 be 56 e1 90 3e
       0.3678063 -0.34114397 -0.36273235 0.28296918
000160 b5 7f bf be 3f 13 86 3e c4 41 70 3d 6c 11 86 3e
       -0.3740212 0.2618656 0.05865647 0.26185167
000170 ed 9c 5a be 17 11 aa be 50 1a ac bc e6 42 57 3e
       -0.21348925 -0.33216164 -0.02100864 0.21021613
000180 03 b8 a4 b9 05 1b 67 be 3e ca b3 be 4f 97 9b bd
       -0.00031417617 -0.22568901 -0.35115236 -0.07597219
000190 7f e8 c1 3e d3 d0 34 bd 31 e2 a0 3d 57 a4 a6 3e
       0.37872693 -0.044144463 0.078556426 0.32547256
0001a0 f3 6b 7d 3e 61 62 43 be 36 d9 b6 be 88 c9 ae 3e
       0.2474821 -0.19080497 -0.35712594 0.3413813
0001b0 29 5c 65 be 96 1f a5 3e 92 d3 48 bd dd d0 b3 3e
       -0.22398438 0.3225066 -0.049029894 0.35120288
0001c0 89 4f 3f be 9f af 3b 3e dc ef 88 be f7 ba 5c 3d
       -0.18682684 0.18328713 -0.26745498 0.05388924
0001d0 d0 30 ac be f9 79 c6 3d ca c7 32 be 7b fb f4 3d
       -0.3363099 0.09691233 -0.17459026 0.119620286
0001e0 bf f3 eb bd 0c 51 a4 3e 8e dc bb 3d 84 17 dd bd
       -0.115211 0.32093084 0.09172927 -0.10795501
0001f0 56 2d 92 3e f4 6c 3b bc 10 76 c3 3d 11 7e 38 be
       0.28550214 -0.011439551 0.09544003 -0.1801684
000200 0b ef 87 be 4b 13 a8 3d 64 db 3d be 03 41 2d be
       -0.26549563 0.08206805 -0.18540722 -0.16919331
000210 3e 9f c4 3e d1 b2 26 3e 11 47 88 be f5 79 46 3e
       0.38402742 0.1627915 -0.2661672 0.1938246
000220 7f 26 0a 3e 60 3d 39 3e 8f 79 42 3d fa 02 99 3e
       0.13491248 0.18089819 0.04747921 0.29885083
000230 ca 5f 1e 3e d2 ec bc be 0d da 1a 3e 9e 9a a2 3e
       0.15466228 -0.3689943 0.15122242 0.3175859
000240 ee a2 fc bd 3b 5a 84 be a7 23 42 bd c4 b1 a7 be
       -0.12335764 -0.2585009 -0.047397282 -0.32752812
000250 3e bc 32 be 74 f0 bd bd b5 e6 32 bd ec 16 96 be
       -0.17454621 -0.092743784 -0.04367705 -0.29314363
000260 8b 77 6a be 6d bd 34 3e 93 15 63 bd 3f 47 aa 3d
       -0.22897165 0.17650385 -0.055440497 0.0831437
000270 7c 0a 2c 3d 04 c9 b4 3e 67 21 a7 be a4 8e 23 3e
       0.042002186 0.35309613 -0.3264267 0.15972382
000280 d0 23 a4 bd 79 2f 7e be 2b 2a 1d 3e 15 63 9e 3d
       -0.08014643 -0.24822797 0.15348117 0.07733742
000290 fe 28 d6 3c 83 4e 86 be 65 34 9c be ba 5b 79 3e
       0.026142593 -0.26231775 -0.30508724 0.24351397
0002a0 24 9c a5 3e 07 94 8a be b9 09 19 be 0a b3 74 3c
       0.32345688 -0.2706606 -0.14945115 0.014935264
0002b0 d1 fd 69 3e 62 83 42 bd 14 a0 1c be 06 05 32 be
       0.2285073 -0.047488578 -0.1529544 -0.17384729
0002c0 93 8c 81 bd 69 11 af bd 50 9e 4b 3e a4 a4 4c bd
       -0.063256405 -0.085482426 0.1988461 -0.0499617
0002d0 d3 8a 7d be 93 ba 9c 3e 6d 98 8f 3d 81 c3 83 be
       -0.24759988 0.30611095 0.07011495 -0.25735095
0002e0 6c 62 62 3e d0 40 d8 3d 64 58 ce 3d d3 27 11 be
       0.22107857 0.10559237 0.10075453 -0.14175348
0002f0 85 6b f3 bc 38 cb 6d be f0 43 ab be 7d f1 99 3e
       -0.029714355 -0.23222053 -0.3345027 0.30067053
000300 d8 63 03 be 88 49 a3 bd f6 b8 b3 ba 2d 27 ad be
       -0.12831056 -0.07973009 -0.0013711739 -0.3381895
000310 72 bf 3b be 0e ff 5f be b0 a0 73 3c 2e 43 e5 bd
       -0.1833475 -0.2187464 0.014869854 -0.11194454
000320 00 eb b3 3e f0 18 9d be 41 a7 ae 3d 40 bc 96 be
       0.35140228 -0.30683088 0.08527995 -0.29440498
000330 27 b9 9e bd 5b 37 db 3d 46 72 09 3e 12 dd 3b be
       -0.07750159 0.107039176 0.13422498 -0.1834605
000340 9b ec 5d 3e 51 a1 bf be b9 18 99 be 72 dd 22 3e
       0.21672289 -0.37427762 -0.29901674 0.15904787
000350 73 5f 8f bc df 71 b0 3e 70 e5 8e 3b da 24 01 be
       -0.017501568 0.34461877 0.004360847 -0.12611714
000360 ba 13 89 be 71 7c 87 be fe 37 74 be 1f 55 07 3e
       -0.26772863 -0.2646213 -0.23849484 0.13216065
000370 aa 4c 1b 3e aa 7c 9c be 1a 5b 0f bd bf 09 ee bd
       0.15165964 -0.3056386 -0.03499899 -0.11622953
000380 1f d8 63 3d 1d 57 49 be 41 67 30 be 1f 4e 92 3e
       0.05562603 -0.19662137 -0.17226888 0.28575227
000390 0e 22 aa 3b 34 a2 ad be 1f b4 a3 3e a4 7f 16 be
       0.005192048 -0.33912814 0.3197336 -0.14697129
0003a0 17 43 c5 3c 1d 65 9b 3e 39 8f 35 3d ab 21 f9 bd
       0.024079842 0.3035058 0.04432604 -0.12164625
0003b0 e1 c8 69 be 89 6a 41 be 2b 46 92 3d 3e 10 b6 be
       -0.22830535 -0.18888296 0.0714229 -0.35559267
0003c0 d1 12 8d 3e 04 db af 3e 8b 40 40 3e 67 58 c2 3e
       0.27553418 0.34346783 0.18774621 0.3795807
0003d0 03 63 b5 bd 5a 04 3a be 93 09 d5 bd 77 62 91 bd
       -0.088567756 -0.18165722 -0.10402217 -0.07098859
0003e0 3a fa 04 bd 22 01 0e bd 58 cd 16 be 09 eb 48 be
       -0.032465197 -0.03466905 -0.1472677 -0.19620909
0003f0 99 9a a3 3e bd 6d 01 be 55 e1 2a 3e f7 7a b2 3e
       0.31953886 -0.12639518 0.1668752 0.3485944

conv4_3.bias f4 [10]
000000 7b e5 20 3d 9c dd 89 bc 5f e0 4d 3e 00 62 a2 3d
       0.03928135 -0.016829304 0.20105122 0.07928848
000010 0d f4 45 3e fb d2 b9 3d 79 f6 f7 3d 5b a0 58 3e
       0.19331379 0.090734445 0.12107558 0.21154921
000020 eb 4c 77 3e e8 72 57 3e
       0.24150436 0.21039927

momentum_buffer f4 [32, 16, 3, 3]
000000 92 07 a4 3c 00 31 7c 3c 5e 3a 5c 3c b2 7e 56 3c
       0.020023141 0.015392542 0.01344165 0.01309173
000010 c6 38 11 3c 37 0d f3 3b d6 57 60 3c ff 89 2b 3c
       0.0088636335 0.007417347 0.013692817 0.010469913
000020 da a1 ba 3b 55 d7 c5 bb cb 99 b0 bb 43 eb 0d bb
       0.0056955637 -0.0060376325 -0.0053894273 -0.002165512
000030 08 9d b0 bb e5 00 ad bb bc 37 47 bb de ef af bb
       -0.0053898133 -0.0052796477 -0.003039821 -0.0053691706
000040 8a b0 7d bb c8 22 5f bb 04 80 a8 3b 10 f6 fe 39
       -0.0038709962 -0.003404783 0.005142214 0.00048629986
000050 a4 e2 83 39 87 5b 9c 3b 71 cb 21 ba 76 70 a6 ba
       0.00025155128 0.004771653 -0.0006171978 -0.0012698311
000060 6c fa b8 3b 7d 61 f3 39 96 35 9e 3a 3e fa cd ba
       0.005645087 0.00046421206 0.0012070413 -0.0015714837
000070 7e b2 81 ba 47 e1 cb 3a 30 15 2d bb 03 7d 21 bb
       -0.0009895114 0.0015554809 -0.0026410334 -0.0024641163
000080 21 05 01 3b c7 40 63 bb c8 3e 52 ba bc 5b 28 3a
       0.0019686895 -0.0034676061 -0.00080202194 0.0006422361
000090 40 cd 06 ba ee e8 d7 3a 86 54 39 3a 11 b5 51 bb
       -0.0005142279 0.0016472617 0.0007069785 -0.0031998793
0000a0 6c 3b 7c bb 26 42 08 bb ca 2f 1e bb 1c 98 95 bb
       -0.0038487567 -0.002079138 -0.0024137371 -0.004565252
0000b0 81 4b b5 bb 66 a3 cc 3a 62 3e 58 b9 c9 57 11 ba
       -0.0055326824 0.0015612661 -0.00020622605 -0.0005544392
0000c0 57 47 15 ba 40 80 81 38 04 f2 25 3b 08 23 61 b9
       -0.00056945294 6.175088e-05 0.0025321255 -0.00021470722
0000d0 72 00 06 3b 88 ae dc 3a c4 7a c1 bb 99 64 a4 bb
       0.0020447043 0.0016836682 -0.0059045274 -0.005016875
0000e0 7d 6f c0 bb 07 ae 71 bb b1 b1 8d bb c9 b8 89 bb
       -0.0058726654 -0.003687741 -0.004324161 -0.0042029363
0000f0 32 76 ae bb 39 3d b2 bb ac 16 8e bb b0 f8 dd bb
       -0.0053241486 -0.005439427 -0.004336199 -0.0067740306
000100 56 dd c6 bb aa 67 9c ba 85 89 a6 bb 5e 5e 41 bb
       -0.006068866 -0.001193275 -0.0050823116 -0.002950571
000110 36 85 77 bb 6e 9d 7e bb d6 9d d8 ba 44 27 b7 ba
       -0.003776861 -0.003885116 -0.0016526531 -0.0013973494
000120 6c 79 0d bb ec 29 d8 ba 14 bf d5 ba 92 ff a3 ba
       -0.0021587266 -0.0016491986 -0.0016307556 -0.0012512079
000130 b0 5d c7 ba e9 a3 df ba b8 2c a0 ba b2 f1 4e ba
       -0.0015210416 -0.0017062399 -0.0012220358 -0.0007894292
000140 e4 5b 12 ba f2 b5 53 bb 83 a4 77 bb 73 6b 69 bb
       -0.0005583151 -0.0032304493 -0.0037787266 -0.0035617023
000150 6a 76 a2 bb f0 36 96 bb 65 c8 86 bb c8 0b 41 bb
       -0.0049579637 -0.004584186 -0.0041132444 -0.0029456485
000160 28 80 43 bb 6e 3a 03 bb 1d 6c 24 3c 4f 01 e6 3b
       -0.0029831026 -0.002002384 0.010035542 0.007019199
000170 64 8d 5d 3b f8 78 f4 3b 9a c0 ad 3b c3 e3 1f 3b
       0.00338062 0.0074607097 0.005302501 0.0024397231
000180 fe bf dd 3b 46 0a a6 3b ae b9 29 3b 7a bf fc 3a
       0.006767272 0.0050671427 0.0025898027 0.0019283139
000190 f7 7b 02 ba c8 ee a1 b9 51 4c 8d 3a 60 f4 ad 39
       -0.00049775786 -0.0003088622 0.001078019 0.00033179205
0001a0 4a 69 b9 ba d0 af 6f 3b 39 99 7d 3a fd 25 9e 3a
       -0.0014145758 0.0036573298 0.0009674016 0.0012065765
0001b0 69 46 e7 bb f2 6e b4 bb e1 f5 99 bb 34 8f e1 bb
       -0.007057954 -0.00550639 -0.0046985005 -0.006883526
0001c0 0c eb b7 bb ad f5 a1 bb a8 4f 77 bb 12 ad 09 bb
       -0.0056127366 -0.004942617 -0.0037736688 -0.00210077
0001d0 b7 e9 45 bb 1c c7 b8 ba 8c 0b 86 ba 1c 41 de 38
       -0.003019912 -0.0014097425 -0.001022683 0.000105979125
0001e0 b3 6f cd ba 8e 87 6d ba 5e 79 d2 ba 40 d4 1e ba
       -0.0015673548 -0.0009061032 -0.0016057899 -0.00060588494
0001f0 56 ed c0 ba 3e 07 33 bb 76 0f b9 b9 72 2c b1 3a
       -0.0014719169 -0.002731755 -0.0003529747 0.0013517274
000200 24 56 ea 3b 14 4d 4c 3b 66 55 64 3b 57 02 9f 3b
       0.007151382 0.0031173872 0.003484094 0.004852574
000210 07 ba 47 3b ea 5d 50 3b 8e d5 97 3b 99 76 9c 3b
       0.0030475871 0.0031794258 0.004633612 0.00477488
000220 7b 1a b7 3a 60 d0 1e 39 c6 4b 84 3b fd 3e 33 3b
       0.0013969684 0.0001514568 0.004037353 0.0027350776
000230 92 23 cb 3a de 18 bd 3b ae fa 82 3b b2 92 31 3b
       0.0015498272 0.0057707867 0.0039971685 0.0027095494
000240 d3 3c 0e 3c ca c2 08 3c 97 05 30 3b bd 15 63 3b
       0.008681494 0.008347223 0.00268588 0.0034650408
000250 de 50 e9 3b 36 ac 13 bb 3b c2 46 3b 91 9c ad 3b
       0.007120236 -0.0022533066 0.0030328173 0.005298205
000260 18 71 4c ba f6 fa 03 ba 21 c4 14 3a a4 17 86 38
       -0.00077988347 -0.00050346495 0.00056749774 6.394021e-05
000270 dc e3 67 39 31 7f 8a 3a 60 8d a4 b8 e6 2f 35 3a
       0.00022114761 0.001056647 -7.8464625e-05 0.00069117395
000280 c0 f7 f4 39 56 8b 59 3a e6 61 a2 3a 92 d2 20 bb
       0.00046723895 0.0008298656 0.0012388795 -0.0024539572
000290 ab 95 ef ba 88 67 23 b8 4d 09 65 3b c3 23 0c 3b
       -0.0018278857 -3.895865e-05 0.003494817 0.002138362
0002a0 04 10 41 39 12 be ce 3b f6 76 c1 3a 44 d4 8f b8
       0.0001841188 0.0063092792 0.0014760185 -6.858309e-05
0002b0 ef 48 35 3b db fc 93 3a 7a 57 dc ba 2a 70 a2 39
       0.002766188 0.0011290567 -0.0016810738 0.00030982617
0002c0 5b 45 11 bb dd e9 2e ba 7b ec df ba 38 24 20 ba
       -0.0022166583 -0.00066724216 -0.0017084026 -0.00061089126
0002d0 b4 e8 dc 3b 6b 77 46 ba df d2 cd 3a 3d 26 8a 3b
       0.0067416076 -0.0007570895 0.0015703103 0.004215984
0002e0 d3 f6 d5 ba 07 bb e5 ba 34 4e 8c 3b 7e 6b 89 3a
       -0.001632417 -0.0017527052 0.0042817835 0.0010484306
0002f0 90 1b 08 b8 82 de a6 ba 85 97 52 3a d0 ca 2a b8
       -3.2450596e-05 -0.0012731107 0.00080334424 -4.0720042e-05
000300 81 24 7c 3a 64 e2 85 b8 b4 d3 01 ba 30 2c 9f 37
       0.00096184766 -6.384103e-05 -0.00049525057 1.8974853e-05
000310 a9 cd 02 bb 00 3e 4b b7 e0 e0 27 ba 53 26 53 bb
       -0.0019959009 -1.2114178e-05 -0.00064040534 -0.0032218888
000320 f8 4d 0a 3a c6 60 98 3a f0 65 c4 39 0a c6 13 39
       0.00052759005 0.001162552 0.00037459983 0.00014092788
000330 a3 4e 43 3b 88 f5 3b 3b 40 38 90 b9 7c 5e 10 ba
       0.002980151 0.0028680284 -0.0002750773 -0.00055072433
000340 ae 03 55 ba 54 28 af ba aa bd 33 ba c0 01 fa b9
       -0.00081258535 -0.0013363459 -0.000685657 -0.0004768502
000350 72 61 5d ba 3c ee 56 ba 28 69 32 ba 24 9a 3c ba
       -0.00084450014 -0.0008198952 -0.00068058306 -0.00071945996
000360 ae b6 28 ba 8f 69 4d ba 3c d3 c1 ba 4b 41 96 ba
       -0.0006435913 -0.0007835859 -0.0014787684 -0.0011463551
000370 58 35 98 39 6c be d3 b9 12 81 86 ba 11 ee a6 39
       0.00029031443 -0.00040386932 -0.0010261855 0.0003183936
000380 60 49 b6 39 18 1a de b9 96 a2 b4 b9 3e a1 df ba
       0.00034768414 -0.0004236258 -0.0003445341 -0.0017061604
000390 0a 14 16 bb 72 7d a9 ba 17 db 3f bb 98 30 92 ba
       -0.0022900128 -0.0012931062 -0.0029274875 -0.0011153398
0003a0 0e 6f 2b 3a a8 e5 ab ba b8 56 c7 3a b9 23 1b 3b
       0.0006539681 -0.0013114708 0.0015208339 0.0023672415
0003b0 e2 a7 5d b9 71 79 d8 ba 9b f6 a2 39 73 3b ed b9
       -0.00021138744 -0.0016515685 0.00031082783 -0.00045248456
0003c0 a0 02 72 b8 46 c5 70 39 88 d7 0d b9 2a f9 f1 39
       -5.769974e-05 0.00022961674 -0.000135271 0.00046152744
0003d0 fb 67 06 3b 27 32 f1 ba c4 9c cf ba 01 1f b2 3a
       0.0020508755 -0.0018401787 -0.0015839566 0.0013589562
0003e0 b6 ac 8d ba 9e 16 42 ba 2f 04 40 3b db e9 bb 3a
       -0.0010808918 -0.0007403883 0.0029299369 0.0014336662
0003f0 12 fc 2d bb e8 af 7f bb 76 10 4c bb 45 2e 49 bb
       -0.002654795 -0.003901476 -0.0031137741 -0.0030697745

momentum_buffer f4 [2]
000000 64 83 9f 3d 77 83 9f bd
       0.07788733 -0.07788747

momentum_buffer f4 [10]
000000 a5 d7 9b bc 5f ab 37 bb db 51 c4 bc 2c af 34 bc
       -0.019023726 -0.002802573 -0.023964813 -0.011028092
000010 1e 12 a9 bb fa c5 54 bc 84 18 b1 bb 50 5a e2 bc
       -0.0051596304 -0.012986654 -0.005404534 -0.027630955
000020 02 c2 b5 bc 76 03 c0 bc
       -0.022187237 -0.02343915

momentum_buffer f4 [32]
000000 69 b3 ef 3b f7 7a a9 3b 53 88 13 bb 00 77 ca 3b
       0.0073150885 0.0051721293 -0.0022511675 0.0061787367
000010 86 ac fd 3c 66 76 c5 3b 0c ad 8e bc 28 4a 90 bd
       0.030966055 0.006026077 -0.0174165 -0.07045394
000020 b4 51 cb bc c8 39 c5 3b c5 1d 55 3c 77 bd 8b 3b
       -0.024819233 0.006018851 0.013007586 0.0042645293
000030 07 62 73 3b 1b 83 3a 3c aa 10 b1 3c 3c d6 34 bd
       0.0037137286 0.011383797 0.021614391 -0.044149622
000040 c0 04 01 bc 60 80 e1 b8 52 b9 5e 3d 52 ed 50 3d
       -0.007874668 -0.00010752748 0.054375954 0.051007576
000050 6a b2 58 ba e8 64 67 bb 7f d3 0b 3c b9 12 b9 bc
       -0.0008266332 -0.0035307948 0.008534311 -0.022591935
000060 42 f5 22 3a 76 ba 8e bd f8 43 08 3b aa 69 42 bd
       0.0006216356 -0.06969158 0.0020792466 -0.04746405
000070 fc 35 bb bb 74 71 22 bb 29 83 4a 3b f4 2d 0b 3c
       -0.0057132225 -0.0024786862 0.0030900931 0.008494843

momentum_buffer f4 [2, 32, 1, 1]
000000 18 33 c5 3c f5 d2 d5 3b af a6 71 bc 4b bc ca bb
       0.024072215 0.006525392 -0.014749213 -0.006186997
000010 67 3a aa bc 54 6a c5 bb b1 d9 d2 3b a4 06 8d 3d
       -0.020779802 -0.006024638 0.0064346422 0.06886032
000020 32 8c 1b 3d 24 ae e6 b9 37 2a bc bb 70 69 52 ba
       0.037975498 -0.00043998763 -0.005742337 -0.00080265757
000030 df 6f 02 3c 24 c7 e7 bb ca 54 f7 bc d6 c2 f7 3c
       0.007961242 -0.0070733 -0.030191798 0.030244272
000040 29 73 90 3d 8e d5 35 bc 8e da 5f bd 7d 32 4b bd
       0.07053215 -0.011098279 -0.05465179 -0.049608696
000050 84 7c 57 ba ff 8a 89 bb d5 28 57 bb 47 18 b5 3b
       -0.00082201534 -0.004197478 -0.0032830734 0.0055265757
000060 74 3c 29 bc 2e fe 68 3d ec ec e4 bb c3 0e 26 3d
       -0.010329355 0.05688303 -0.006986251 0.04054142
000070 aa bf 06 bc 94 98 82 bb bf 3d 35 bb fa 8b 21 bc
       -0.008224407 -0.003985474 -0.0027655212 -0.009860033
000080 a6 4c c4 bc d4 58 d8 bb 7c 0f 72 3c df 7d c9 3b
       -0.02396233 -0.006602386 0.0147742 0.006149038
000090 cd 95 a9 3c cc c7 c5 3b 1e 02 d2 bb 50 be 8c bd
       0.020701313 0.0060357805 -0.006408944 -0.06872237
0000a0 9b d5 1a bd 68 14 15 39 f0 9f ba 3b 42 ab 62 3a
       -0.037801366 0.00014217349 0.0056953356 0.0008646735
0000b0 20 ef 00 bc a1 d2 e2 3b e9 25 f8 3c 4c 26 f8 bc
       -0.007869512 0.0069220816 0.030291514 -0.030291699
0000c0 d7 d7 90 bd 76 a5 38 3c eb 37 60 3d d4 d6 4a 3d
       -0.07072418 0.011269918 0.054740828 0.049521282
0000d0 61 18 88 3a da 1f 88 3b 45 a0 60 3b 3e a2 b5 bb
       0.0010383242 0.0041541876 0.0034275216 -0.0055430224
0000e0 cc 8c 27 3c 4c b0 68 bd 4d 11 e6 3b dd cd 26 bd
       0.01022644 -0.056808755 0.0070211054 -0.04072367
0000f0 e7 70 04 3c 67 74 83 3b 8f 3b 29 3b 17 92 1f 3c
       0.008083559 0.004011679 0.0025822853 0.00973942

momentum_buffer f4 [4]
000000 f3 bc 31 3c 39 d2 f0 3a 46 85 b1 3b e8 ab 99 bb
       0.010848272 0.0018373198 0.0054174988 -0.0046896823

momentum_buffer f4 [16]
000000 f9 06 ab bd bf fa 2a bd 40 4f 24 3d b0 4b 40 3d
       -0.08350939 -0.041743036 0.04011464 0.04694718
000010 f8 f4 00 3d 4f 26 a0 3d 26 02 3c 3d 70 6d 80 bb
       0.03148362 0.07819807 0.045900486 -0.003919296
000020 04 48 e1 3b e8 31 64 3c d9 b6 4c bc 29 5b 00 3d
       0.00687504 0.013927914 -0.012494766 0.031336937
000030 9c 69 10 3b 86 2a 6d bc 34 e2 a5 bd 0f 49 a4 3c
       0.0022035604 -0.01447547 -0.080997854 0.020054368

momentum_buffer f4 [4, 32, 1, 1]
000000 73 bb 1d bb 14 71 9a bb fd 06 81 bb 97 21 17 3a
       -0.0024068027 -0.004713187 -0.0039376006 0.0005765198
000010 cc 9a b0 bc da 4d 3c ba 32 36 00 3c 81 4e 18 3d
       -0.021558188 -0.00071832316 0.007825421 0.037184242
000020 7e cd 44 3c ec bd 6c b9 0a b9 29 bb 17 57 98 ba
       0.012011884 -0.00022577465 -0.0025897645 -0.0011622634
000030 29 04 94 3a 70 87 81 bb 23 ec 9f bc 6f 19 2b 3c
       0.0011292744 -0.003952913 -0.019521778 0.010443076
000040 f1 21 c1 3c e6 ec 1a bb 6d c4 13 bd 98 85 b7 bc
       0.023575755 -0.0023639738 -0.036075998 -0.02240257
000050 bd b6 5c 3a b5 86 ed b9 d9 b1 ba 3a 5a 99 fb 3a
       0.0008419564 -0.00045304527 0.0014243677 0.0019195483
000060 fa b3 ec ba f0 26 f2 3c 00 20 f3 ba 22 bb 44 3c
       -0.0018059008 0.029559582 -0.0018548965 0.012007507
000070 d0 46 0f bb 6e 6c 74 ba 5a 66 c0 ba 1e 13 a9 bc
       -0.0021862276 -0.00093240186 -0.0014678941 -0.020638999
000080 3b 8d e2 bb 65 ac 87 bb 2a 7d d4 bb 7c 6d ec ba
       -0.0069138086 -0.004140424 -0.0064846473 -0.0018038
000090 9d 92 92 bc f2 bc 8d 39 31 ab 2a 3c ac 77 14 3c
       -0.017892176 0.0002703439 0.010416792 0.009061735
0000a0 14 f8 cd 3a 58 24 23 39 17 21 b0 b9 78 c1 52 ba
       0.0015714192 0.0001555843 -0.0003359399 -0.00080396933
0000b0 ec c9 dd 39 fc 88 0e bb 95 f0 13 bc 3a 4d a7 3b
       0.00042302848 -0.002174913 -0.009029527 0.0051056417
0000c0 97 1e 1b bc a9 1f 0c ba 92 77 bd bc 04 b5 8f bc
       -0.009467742 -0.0005345294 -0.023128305 -0.01754237
0000d0 16 68 94 3b fc 21 05 ba 38 bb 72 b9 d8 d2 09 bb
       0.0045290096 -0.00050786114 -0.00023148663 -0.0021030214
0000e0 9b de d5 3a 55 d0 b0 3c 9c 27 61 3b db b1 9e 3b
       0.0016316952 0.021583715 0.0034355884 0.0048429794
0000f0 ce 4b 01 ba 46 3a ec ba 68 ae 3c ba be 70 3e bc
       -0.0004932255 -0.0018022738 -0.00071976194 -0.0116235595
000100 43 f2 5e 3b 2a 47 8e ba 03 0c b8 3b e6 78 17 b8
       0.003401891 -0.0010854949 0.0056166663 -3.61138e-05
000110 5c d8 aa 3c 88 9f 42 ba 12 60 a9 bb cc 71 90 bb
       0.020855121 -0.00074242847 -0.005168923 -0.004408097
000120 f0 58 f2 39 65 40 a1 ba 79 94 fb 3a 39 01 b2 ba
       0.000462241 -0.0012302516 0.0019194029 -0.0013580687
000130 e0 bd 9f b9 a6 42 9b ba 41 e3 b3 3c 42 bc a4 bb
       -0.0003046831 -0.0011845424 0.021958949 -0.005027325
000140 70 a3 a0 bb 9d 9a f4 3a bf f9 01 3d 62 d7 c7 3c
       -0.004902296 0.0018661801 0.031732317 0.024394695
000150 8a c3 98 bb 10 f5 07 3a 1c d1 82 39 ae d8 33 bb
       -0.004661982 0.00051863585 0.0002495133 -0.0027442384
000160 43 3c e4 39 36 ae 7e bc 1b 08 d9 3a 41 5c f0 bb
       0.00043532447 -0.015544465 0.0016558202 -0.0073352163
000170 1f 44 ad 3b 03 bf a7 ba 4a 47 3c 3a b8 3a c7 3b
       0.0052876617 -0.0012798015 0.0007182254 0.006079998
000180 9c ba 78 bb 06 87 98 3b ce a7 72 3b 57 47 f3 b9
       -0.0037953025 0.004654768 0.003702629 -0.00046401724
000190 c8 9b 7e 3c 7a 3d 43 bb b1 38 8b ba b0 5b 32 bc
       0.015540071 -0.0029791282 -0.0010621754 -0.010886118
0001a0 ec 00 62 bb fe 71 01 bb 54 7b 18 3a f2 c0 3c b8
       -0.0034485413 -0.0019751783 0.0005816717 -4.5002387e-05
0001b0 8a b8 b1 39 6f 06 0c 39 a0 e2 ba 3a f3 1c 0a bc
       0.00033897563 0.00013353837 0.0014258213 -0.008429754
0001c0 9c c7 e7 3b 50 e7 1b 38 1e ac c0 3c 5e ac 3b 3c
       0.007073356 3.7170306e-05 0.023519572 0.01145467
0001d0 b8 25 8f bb 95 7c 37 ba b4 36 49 bb 77 36 61 bb
       -0.00436851 -0.000699946 -0.0030702772 -0.003436474
0001e0 0a 6e dd ba 32 a6 15 bc f7 01 86 ba 92 e6 97 ba
       -0.0016893756 -0.009133862 -0.0010223974 -0.0011589101
0001f0 b2 ea 8e 3a 69 c7 07 bb 38 60 18 bb 10 fb 99 3c
       0.0010903685 -0.0020718223 -0.002325071 0.018796474
